inferencer/app/model.pth (torch, 284562 bytes, 12 tensors)

encoder.0.weight f4 [128, 200]
00000000: ef01 3f3d b06b 5abc d110 703d 96bc ca3d
00000010: 5913 603d ebfd 343d aaaf 373d d713 153d
00000020: d8b0 cd3d 2231 e0bc 5e7b 093c a0ba 803d
00000030: 1f2d dc3c 486e f93c fcde 25bc 1953 8d3d
00000040: 4ece 383d 9229 c6bc b16d ce3d 5436 cf3d
00000050: f6a5 5f3d 8bc8 da3d e879 593d 7086 d03d
00000060: a1e7 a13d 1d48 883d 76d5 973d 8e53 ca3d
00000070: c9af 9e3d da6a 1a3c 36dd 173b 8429 313d
00000080: 3578 203d 6e22 a63d 6a15 4e3d 1a08 983d
00000090: 8d5d 16bc 366c c3bc 3df8 d9bc 8efe 433d
000000a0: 87f1 01bd f0d7 7dbc 20ed 903d 62aa d1bc
000000b0: f7cd 273b f650 5c3c 92bf 24bc b43f 953d
000000c0: a860 bc3d db74 a93d 35f9 8b3d 59c5 19bd
000000d0: 5d92 843d 0e39 763d 1c4b 853c 59a3 ed3c
000000e0: 67d2 10bd 0bb6 7c3d 3204 b13d d7a9 c13b
000000f0: 5c58 f63c ecc6 743d 0018 2b3c 1446 4f3c
00000100: 0e86 09ba a59c 8bbb 32cc f9bc 914b 72bc
00000110: 5def b43c 48e8 58bc 3a33 ebbc 247d 433c
00000120: 7378 20bd a3c0 843d 52c3 b53d 050c ac3d
00000130: 265e 763b fdfc ad3d 65d7 623d 92fb 663d
00000140: b981 acbc d0b6 393d d814 dd3a 5e12 553d
00000150: ce56 5a3d b7b8 b1bc 0341 edbb de35 4bbd
00000160: c9ed 303c 37ce 183d 2d37 0bbc fc4a 643d
00000170: 6fcd 3bbd 5c4c ddbc 741d 253d b292 00bd
00000180: 3271 15bd 0a61 943c cf6d 8bbc afa7 32bd
00000190: bc8a a33d e48c 743d 1456 263d c21b 7fbb
000001a0: 46b7 4d3d 46ea 6f3d 5ca6 803d 5442 91bc
000001b0: 762f 1cbd 37cb ab3c ecd9 a13d a1ca f7bc
000001c0: ee01 4dbd aee7 be3c 9326 bd3c 4625 753c
000001d0: f8c3 06bc 11c4 e1bb 8ddb 1abd 5896 34bd
000001e0: 71d3 2ebd 20a9 1abc 8f61 47bd 802f 57bd
000001f0: 7d74 d43c b9a1 ae3d 7ce9 703d 2d0e c2bb
00000200: 627a 2fbd 0652 d6bc c14a 50bc 6a82 873d
00000210: 163c c0bc f053 49bd 9f2b eebc 865a 34bd
00000220: d90f 30bd 27bc 8c3b 047a 5b3d d47f 46bd
00000230: 28a4 aabc 189e 273d 7ab0 1ebd ce54 39bd
00000240: 463b d6bc 273e 19bd fccf 42bd c09b e73a
00000250: 8f09 9d3d b890 2f3d a5a8 44bd 4116 573d
00000260: 4256 cb3c 9f36 4e3d c112 c1bc cb8a 7dbc
00000270: 759c fd3c f1ef cebb 97b2 15bd a781 03bb
00000280: d859 11bd 8aee 523c 6fdf 61bd 238b b43b
00000290: d768 90bc 7faf 6bbd f845 363d 826d 3c3d
000002a0: c0c7 96bc 2faa 8e3d 7af1 343c ea57 84bb
000002b0: 95cf fb3c e754 ad3c 0f0a 3d3c 4c18 36bd
000002c0: a4ff 6bbd 223f 1dbd 713a 823d 3414 c8bc
000002d0: 8826 80bd 9eab 3c3d df34 06bd f2ca e1bc
000002e0: c7ca 84bd 2cee 023d c022 85bd 924b f2bc
000002f0: ecc4 693d c46b dd3c b4d5 33bd 0158 063d
00000300: 34f4 c7bc 141f c83c fe4d 2abd 422a f7bc
00000310: 1e02 b53b 0126 1f3c a4f1 913c 0613 6f3c
00000320: be26 e4bc 8861 abbd fba8 653d e559 c9bc
00000330: d84e 4e3c 695b a3bc 95f8 a83c 1c5b 19bd
00000340: d9ba 2fbd e4b0 2a3d 7931 123c 119c b1bc
00000350: 1320 e83c f57b 84b8 2d18 54bc 6eb6 98bb
00000360: 9741 773b 55c0 8ebd 24ad fa3c c5b0 cebc
00000370: 3df0 22bd 3fdc 183b 4177 2e3d 776c 16bd
00000380: f727 09bd 3b78 9abd f1be 55bd f8ee a3bd
00000390: 6216 99bc 94ba 21bd b4e3 41bc b84a 593d
000003a0: 69fd f6bc f100 1ebd e7de cfbb 6895 1bbd
000003b0: eea9 cf3c f5a5 6bbd aa09 9fbb 37ca a6bd
000003c0: b5c4 50bd bc3c ecbc ab0e 0b3d a671 383c
000003d0: cebb d63a 9c53 e73c 2595 7fbd c09f 523d
000003e0: 2bb0 523d a926 363d 96d0 e2bc cfe3 8b3c
000003f0: acfc 8dbc 2378 b23b 1383 13bd 41a4 3f3d
0.046632703 -0.013331339 0.058609787 0.09899251 0.05470595 0.044187468 0.04484526 0.036395874
0.10043496 -0.027367178 0.008391229 0.06285596 0.026876984 0.030448094 -0.010123964 0.06900615
0.045118622 -0.024189744 0.10079516 0.10117784 0.054601632 0.10682782 0.053094774 0.10181892
0.07905508 0.066543795 0.07413761 0.09879218 0.07748372 0.009424889 0.0023172623 0.043252483
0.03917714 0.08112036 0.05031339 0.0742342 -0.009177578 -0.02385531 -0.026607627 0.047850184
-0.03172448 -0.015493378 0.07076478 -0.02559394 0.0025604942 0.013447037 -0.01005544 0.07287541
0.09198123 0.082742415 0.06834642 -0.03754172 0.06473229 0.060113005 0.016271167 0.029008554
-0.035356905 0.061697047 0.08643378 0.005910139 0.03007143 0.05976002 0.010442734 0.012650985
-0.0005246111 -0.004260617 -0.030492876 -0.014788524 0.022086794 -0.013238974 -0.02871095 0.011931691
-0.03917737 0.06482055 0.08875145 0.0840073 0.0037592738 0.08495519 0.055381197 0.05639226
-0.02105795 0.04534036 0.0016867174 0.05201947 0.05330544 -0.021694524 -0.007240416 -0.04961192
0.01079888 0.037306037 -0.008497042 0.055735573 -0.045850214 -0.02701395 0.04031129 -0.0313899
-0.036484905 0.018112678 -0.017020134 -0.043616947 0.07985446 0.059704676 0.040609434 -0.0038926457
0.05022361 0.05857303 0.062817305 -0.017731823 -0.0381312 0.020970924 0.079028934 -0.030247988
-0.05005067 0.023303833 0.023089683 0.0149625 -0.0082254335 -0.006889828 -0.037807036 -0.04408869
-0.042682115 -0.009439737 -0.048677024 -0.052535534 0.025934452 0.0852694 0.058816418 -0.0059221
-0.042841323 -0.026162159 -0.012713135 0.066166714 -0.023466151 -0.049152315 -0.029073535 -0.044031642
-0.042983864 0.0042948904 0.05358316 -0.04846175 -0.020830229 0.040922254 -0.03874252 -0.04524689
-0.02615131 -0.03741279 -0.04756163 0.0017670318 0.07667839 0.042862624 -0.048012394 0.052511457
0.024821404 0.05034506 -0.023568513 -0.015474985 0.030958394 -0.0063152243 -0.03654727 -0.0020066292
-0.035486072 0.012874255 -0.055144724 0.0055097505 -0.017628117 -0.057540413 0.04450032 0.046002872
-0.018405795 0.06966054 0.011043901 -0.0040388005 0.030738631 0.021158649 0.011538043 -0.044456765
-0.057616845 -0.038390286 0.06358803 -0.024423696 -0.06257349 0.046062104 -0.032765266 -0.027562592
-0.06483989 0.03196542 -0.06500769 -0.02957705 0.057072565 0.027028926 -0.043904975 0.03279877
-0.024408437 0.024428882 -0.041578285 -0.030171517 0.005523934 0.009713651 0.017815419 0.014591938
-0.027850505 -0.08368212 0.056069355 -0.024578998 0.01259204 -0.019941049 0.020626346 -0.037440404
-0.0429028 0.041672602 0.008922928 -0.021680864 0.028335607 -6.317339e-05 -0.012945217 -0.004660419
0.0037728304 -0.06970278 0.030600138 -0.025230775 -0.03977989 0.0023324636 0.0425942 -0.036724534
-0.03348538 -0.075424634 -0.05218405 -0.08004564 -0.01868743 -0.039484575 -0.011834074 0.053049773
-0.030150132 -0.038575117 -0.0063437107 -0.03798428 0.025349583 -0.057531316 -0.004853447 -0.08144038
-0.050968844 -0.028837554 0.033949535 0.011257565 0.0016382874 0.02823811 -0.062398095 0.05142188
0.051437538 0.044470463 -0.027687352 0.017076401 -0.017332397 0.0054464503 -0.036013674 0.046787504

encoder.0.bias f4 [128]
00000000: f8f5 a2b9 0937 fdbb 4af8 5abb f1a1 153e
00000010: 3aaf 12bc 1b71 483c 5823 243d 1db8 703c
00000020: fa28 30bd 5028 8cbc 8b5e 773d e035 98bc
00000030: 2ede 8bbd 1959 973c 66b4 d53d be90 0abd
00000040: 0198 93bd c90a 11bd 085e debb bd49 073d
00000050: c2b3 963b 951e c13d fe09 6f3d 5749 5c3c
00000060: b42f 523d 6bbf cc3d 61fb 9dbd 0e1f 6dbd
00000070: 362e c63d b2fd 1b3d ff04 2dbd 96eb 873d
00000080: 464c 82bd 2a68 4c3e 42e1 863d 925a 7ebd
00000090: 676e b1ba fad7 363d 5084 1a3d d4d7 ab3c
000000a0: 02e1 4ebd 79c3 093d 1b66 653d 87b9 04bd
000000b0: 0c88 323d 6df2 793d afde 953d 7f70 9c3d
000000c0: 0553 bebc 8f0c 193d 4af3 193d 7c37 113d
000000d0: 90ef 873c e800 2fbd 5328 273d ad2b af3d
000000e0: 283e b63d d309 84bc 71cf 3c3d 553f 8b3d
000000f0: ed3f ef3b fb49 b23d 72e8 8d3d 0871 8a3c
00000100: 5671 19bc e70c 933d f881 5dbd d66f 81bc
00000110: 86e3 b33d 8352 a23d ccef cb3d 1c59 6d3d
00000120: 7e32 513d c7ed 863c be56 d8bc 2fd3 a13d
00000130: fc0a 843d c756 b2bc 690d c13b e2be e23c
00000140: ae74 d73c d511 00bd 31ab d63c 2c07 373d
00000150: 4dd9 dbbb 8435 abbc 72dd 103d 5c62 623c
00000160: b138 fcbc a285 be3d 2367 023d 46e0 893d
00000170: 70b6 c23d 31e3 b9bc 2063 cebc 44c6 563d
00000180: 0d95 3fbd 897d 253d 7b29 593d 1221 80bc
00000190: f16e 00bd 1d46 473c 925a e7bc 51b0 1a3d
000001a0: 51ec 9d3d 8c97 a93d 6c00 9a3c 00e4 a83c
000001b0: ec45 50b8 bcf4 0fba f0ab 473d 26e2 503c
000001c0: 4f8e 083d bdf9 9d3b 0af5 423d 4fc2 05bd
000001d0: 9d38 923d a4c7 043c 7a9d 8dbd a9c9 fd3c
000001e0: f000 87bc cc60 bd3c 4ab4 23bd 90fd 733d
000001f0: 3ab7 5b3c 0ba1 b9bc 1eed 1d3c b104 05bd
-0.0003108231 -0.007727508 -0.0033412152 0.14612557 -0.00895291 0.012233998 0.04007277 0.0146923335
-0.04300783 -0.017109066 0.060392898 -0.018580377 -0.06829487 0.018475102 0.10434799 -0.033829443
-0.07206727 -0.035410676 -0.0067861117 0.033029307 0.0045990655 0.09429661 0.05835914 0.01344522
0.051315024 0.099974476 -0.07713962 -0.057890944 0.09676783 0.03808374 -0.042241093 0.06636731
-0.06362204 0.1996161 0.06585933 -0.062098093 -0.0013536931 0.044639565 0.03772384 0.020976938
-0.050507553 0.033633683 0.05600558 -0.032403495 0.043586776 0.06102221 0.07317864 0.076386444
-0.023232946 0.037365492 0.037585534 0.035453305 0.016593724 -0.042725474 0.04080994 0.08553252
0.08898574 -0.016117966 0.04609627 0.06799189 0.0073013217 0.08705517 0.06929101 0.0168996
-0.0093654 0.07180195 -0.054079026 -0.015800398 0.08783631 0.07925894 0.09957847 0.05794631
0.051073544 0.016470803 -0.02640855 0.07901608 0.064474076 -0.021769894 0.005891491 0.02767891
0.026300754 -0.031267006 0.026204677 0.044684574 -0.006709254 -0.020899542 0.035367437 0.013817396
-0.030788751 0.09302832 0.03183664 0.0673223 0.095074534 -0.022691341 -0.02519375 0.052435175
-0.046773005 0.040402923 0.053018074 -0.01564077 -0.031355802 0.012162712 -0.02824143 0.037765805
0.077110894 0.082808584 0.01879903 0.020616531 -4.9656184e-05 -0.00054914854 0.048747957 0.0127492305
0.03333884 0.004821031 0.04759697 -0.03265601 0.071397044 0.008104239 -0.06914802 0.030979948
-0.01647994 0.023117445 -0.03996686 0.059567988 0.013410384 -0.0226598 0.009639053 -0.032475177

encoder.2.weight f4 [64, 128]
00000000: 7820 a8bb ec30 8abd 9d76 80ba 805b fe3d
00000010: a1b2 edbb b97d 06bd 7569 2dbd 889f 563d
00000020: 2608 c53d ce32 693d 3ff6 3a3d 975d c93d
00000030: 748c 483d b081 083d 995b f3b9 2e1b ffbc
00000040: ad53 adbd abf4 c93d 9c90 073d 4fa1 c4bc
00000050: 07e1 31bd 3eb5 8e3c ce30 dd3c 015f 603d
00000060: c1f9 853b 0f8d f93b 0fc1 ac3d b70e 11bd
00000070: 7d5c d13d 227a 45bb b49f 9dbd ad95 d13c
00000080: ceb7 61bc 3f81 31be 72f8 8ebd 62e2 3abd
00000090: a178 76bd 5b7a 5fbd 3912 28bd 260d 18bd
000000a0: d7c1 b6bc 265b 723c a3c4 8dbd 17db 73bd
000000b0: d014 823c 9350 8f3c 85fe db3d 2067 9c3d
000000c0: 1ee4 09bd bc88 d63d c44e c83d 073e 81bc
000000d0: df5d f43d 9d12 943d 65e7 99bd 8176 a5bd
000000e0: 0768 893d 42d0 683d 2768 8f3d c03c 393c
000000f0: 63ec 3b3c a2f8 773e 25ca babc 39c5 f0bc
00000100: 25c0 46bd 1c9d 9c3d 8b9d 3dbc 5865 103d
00000110: 729a 423d fdc4 ad3d 22be 8d3d 87e4 8abd
00000120: 0ef9 fcbb 097d 1c3d 89bc 683d ae8f 19bd
00000130: 73a3 0ebc 8f9f 2abd de4c 0ebd 0784 13bd
00000140: e71c 443d 1cbc 9c3c abde 8c3d 7bd5 a93d
00000150: a516 a03d 4456 a63d 01af ddbc 445d c93d
00000160: dbdf 633d 9b4b 2fbc e957 38bd 38b1 54bd
00000170: ff97 6cbd eb7f 29bd 9038 203d 1ed9 583d
00000180: 709f 8abd 7e86 9dbd 65c2 4f3d 28d6 a8bd
00000190: c9c4 dfbc 7cb5 0f3d b5fa 823d c074 8e3d
000001a0: a6f7 8c3c f935 94bb ba34 13bd 83b6 f0bc
000001b0: bb40 553d da99 a53d 23c6 3cbc 7d5f 6fbc
000001c0: 62bc 8f3d e9ba 5d3b dac5 46bd 42ab cf3c
000001d0: 5f59 71bc ca74 c13d 351e 95bc 40de 523d
000001e0: 007c ec3d ed08 f13d cd6b c63d 1a59 0abd
000001f0: 99c2 a23d 4f5a 2a3d b0c9 2bbd 7e90 d43d
00000200: 0410 10bd ca9c bcbc fae5 983d 76b9 513d
00000210: da3f b63d 8b89 3cbd 37d2 abbd 079c 56bd
00000220: 5e62 5fbd b745 3b3d 4070 6d3d 90c0 cfbc
00000230: a07a 32bd c0cc 903c 254d c9bc 7b7e 7dbd
00000240: 9b60 183c 3f37 bf3d abf0 00bc ef76 9b3d
00000250: f393 203d 44f1 7b3a 054e 7fbc 0eef a93d
00000260: 3c1e df3c b3be 203b f2b2 2cbd 0fea 95bd
00000270: 303d b6bd 2063 743d 243c 30bb a1fa 713e
00000280: e6cf bf3d 153d 32bc 150c cebc 7c49 54bd
00000290: 0c97 653c 7a30 69bd 698c 5a3d fce4 5f3d
000002a0: adec 18bc f304 8b3d c3f1 253d 2e64 9a3d
000002b0: b2f0 64bd fade 853d 6673 66bb 8bd6 0c3d
000002c0: 5bf0 55bd 9e43 883c 12bf 2dbd 1d01 9cbd
000002d0: 73a9 923d 6de2 333d 49d7 5e3d 4dd6 553c
000002e0: d1dd 443b 6ad8 513c c6c9 bb3c 910f 98bd
000002f0: 1657 d33c efe6 803e aed1 75bd c6dc 50bc
00000300: 2fb1 253d 5827 17bc f7c9 8b3d 3cec d63c
00000310: 47c4 a93d d0b7 983c a0cf 743c b7e6 623d
00000320: bf56 47bd 3d92 1bbd b204 043d 1318 563c
00000330: 66d2 74bb 4920 72bd 19a5 973d 4061 063c
00000340: 2b0a a1bd 8e24 e83c 37b6 c83c 637e 9bbd
00000350: 72f3 cdbc ac86 ad3d 34e1 1abd d9c6 a6bc
00000360: 8a53 e9bb 3094 263c ef5b ecbc c069 953c
00000370: 604e d43c dfe2 21bc 8c6b b53d 231d b3bc
00000380: 380c 8b3c 53f3 76bd 617a 6a3d 69bc ab3c
00000390: fea7 a1bd 7208 5b3d 30f4 803d fd4c 993d
000003a0: df00 5c3d 737a fc3c 98e8 693d 4bc4 bf3c
000003b0: 8d3e dd3b 218d b8bc 033b 30bb 29a8 4f3d
000003c0: fc82 8d3d cc8f d9bc 8809 90bd 7b33 273d
000003d0: ed0d 90bd 1413 d13b 796f 73bb 87ea 10bd
000003e0: 37d0 02bd d96c a43d 6b15 2f3d 39a7 bc3c
000003f0: a679 5d3d e5ee 8cbd 7ec9 1b3d c15a 843d
-0.0051308237 -0.06747612 -0.0009800975 0.12419796 -0.0072539602 -0.032834742 -0.0423369 0.052398235
0.09620695 0.056933217 0.045644995 0.09832304 0.04896207 0.033326805 -0.00046416817 -0.03114089
-0.084632255 0.0986112 0.033096895 -0.0240027 -0.043427493 0.017420407 0.027000811 0.054778103
0.004088611 0.0076156924 0.084352605 -0.035414424 0.10222719 -0.0030132611 -0.076964766 0.025584066
-0.013776733 -0.1733446 -0.06980981 -0.04562605 -0.060173634 -0.054560047 -0.041033003 -0.037121914
-0.022309227 0.014792239 -0.06922271 -0.059535112 0.015879065 0.017494475 0.10741905 0.07636857
-0.033664815 0.10475299 0.09780648 -0.015776647 0.11931967 0.07230113 -0.07514838 -0.080792435
0.06709295 0.056839235 0.07002287 0.011305988 0.011469933 0.2421594 -0.022801468 -0.029390918
-0.048523087 0.07647154 -0.011573206 0.0352529 0.04751057 0.08484838 0.069210306 -0.067818694
-0.0077201193 0.03820518 0.056820426 -0.03749054 -0.0087059615 -0.041656073 -0.034741275 -0.036014583
0.047879126 0.019132666 0.06878408 0.08292671 0.07816819 0.081219226 -0.027060987 0.09832242
0.055633407 -0.010699178 -0.045005713 -0.05192682 -0.057762142 -0.041381758 0.039116442 0.052941434
-0.067686915 -0.07691668 0.0507225 -0.08243972 -0.027315514 0.035085186 0.06395475 0.06955862
0.017207932 -0.0045230356 -0.035938956 -0.029383903 0.052063685 0.080859855 -0.011521849 -0.0146101685
0.07018353 0.003383333 -0.04852853 0.025350217 -0.01473078 0.09446104 -0.01820288 0.051481485
0.115470886 0.117692806 0.0968853 -0.03377638 0.07947273 0.04159003 -0.04194039 0.10379122
-0.035171524 -0.023023982 0.074657395 0.05120226 0.088988975 -0.04602961 -0.08389705 -0.052394893
-0.05453717 0.045720782 0.057968378 -0.025360376 -0.043573976 0.017675757 -0.024572918 -0.0618882
0.009300376 0.09336709 -0.00786988 0.07591044 0.039203595 0.00096108415 -0.015582566 0.08297549
0.027236097 0.0024527728 -0.042162843 -0.07320034 -0.08898389 0.059664845 -0.0026891315 0.23630764
0.09365825 -0.010878821 -0.025152246 -0.051827893 0.014013063 -0.056930996 0.05335656 0.054661736
-0.009333772 0.06788053 0.040513765 0.07538639 -0.055893607 0.0653667 -0.0035163998 0.03438429
-0.052231174 0.016633805 -0.042418547 -0.076174 0.07161226 0.04391711 0.05440453 0.013051582
0.003003944 0.012807945 0.022923362 -0.07424844 0.025798362 0.25176188 -0.06001442 -0.012747949
0.04045218 -0.009225689 0.06825631 0.026235692 0.0828939 0.018642336 0.01494208 0.055395808
-0.048666712 -0.03798126 0.03223104 0.013067263 -0.0037356853 -0.05911282 0.07404537 0.008201897
-0.078632675 0.028337743 0.02450095 -0.07592466 -0.025140498 0.08472952 -0.037812427 -0.02035849
-0.0071205543 0.010167167 -0.028852431 0.018238902 0.025916278 -0.00988075 0.088584036 -0.02186448
0.0169736 -0.060290646 0.057245616 0.020963864 -0.0789337 0.05347485 0.06296575 0.074853875
0.05371177 0.030820107 0.057106584 0.02340903 0.0067518414 -0.022528233 -0.0026890642 0.05069748
0.06909749 -0.026557826 -0.07033068 0.04082058 -0.07033906 0.006380448 -0.00371453 -0.035379913
-0.03193685 0.080285735 0.042745035 0.023028957 0.05407109 -0.06881503 0.038033955 0.064626224

encoder.2.bias f4 [64]
00000000: 85b4 b23d c443 1e3d bba7 8cbd 740f 7c3d
00000010: 10a0 f73d 5029 18bd 3787 133e ba55 b63d
00000020: dae9 adbc b194 cc3d 1819 403c 66de fcbc
00000030: c783 aabd ff67 81bd 2dee 71bd dbc7 27bd
00000040: bc50 7a3d 9b76 403d 048e 4e3d eb5d a5bc
00000050: 3d90 48bc c322 dd3c 3b0c 11bd ddee 9ebd
00000060: 3483 3f3d 0a5a 7bbd a49e 6d3e 2d7a 49bd
00000070: 7e7d 643d 0f69 4ebd bf7a d43d 05c9 bf3d
00000080: bc22 6bbd 193b 913d 8ddf f0ba 2022 76bd
00000090: e843 85bd 884f af3d 8333 44bd f9e9 53bd
000000a0: b038 d3bc 5160 2c3d d3c8 3d3c 7829 aebd
000000b0: 4247 813d a933 573d 3496 c83d bf7e 263e
000000c0: 376b cc3d 45f4 763d da54 6c3d 9ff3 293d
000000d0: 81df a0bd 5153 593d d774 05bd b7c9 f6bc
000000e0: 4d47 cf3d 8dd9 b9bc 9432 193e 7846 333d
000000f0: 63d2 80bd b87f 71b9 0267 b03d 6628 bf3d
0.087258376 0.038638845 -0.068679295 0.061538175 0.120910764 -0.037148774 0.14407049 0.0890307
-0.021229673 0.09989298 0.011724733 -0.030867767 -0.08325916 -0.06318664 -0.059065033 -0.04096208
0.06111215 0.04698811 0.050428405 -0.020186385 -0.01224142 0.026994115 -0.035412055 -0.07760403
0.046755984 -0.061365165 0.23205048 -0.04918878 0.05578374 -0.05039316 0.103749745 0.09364513
-0.057406172 0.0709135 -0.001837717 -0.060091138 -0.06507093 0.08560091 -0.047900688 -0.051736806
-0.025783867 0.042084042 0.011583525 -0.08504003 0.063124195 0.0525395 0.09794274 0.16259287
0.09981387 0.060291547 0.05769811 0.0414921 -0.0785513 0.053057972 -0.03258213 -0.030125482
0.101210214 -0.022686744 0.149607 0.043768376 -0.06290128 -0.0002303113 0.08613397 0.09333877

encoder.4.weight f4 [16, 64]
00000000: da66 4c3d 6a7f 0b3d 2d37 b3bd 6583 993d
00000010: 7120 6b3d 84c8 bebd ce88 c3bd 6201 cbbd
00000020: 63e7 abbd 832e d13c 4dda efbd 7212 adbc
00000030: 62ee 7f3d 452e 973a 5af8 eb3b c792 f9bd
00000040: 5368 8d3d b67e cabd 7dde fcbb f2f1 793d
00000050: 4c48 0dbd 5e7b ffbd 4ab1 84bd 2b49 b2bd
00000060: 72e9 653d 00b6 22bd c8e6 fabd 0294 d63d
00000070: c95d 20bc 6f6c 05bd 3867 edbc d9db 02be
00000080: f389 c4bd 31d3 643d 70a1 f3bc d369 90bd
00000090: fc82 babc 4ffa f6bd 534e 01be 4e59 5fbc
000000a0: 9e9e e73d 8d03 8a3d 441e d2bd d708 ae3d
000000b0: e054 93bd bf06 04be ce01 863d 1907 a1bd
000000c0: 29eb 05be 21f4 a13c 1ed8 ab3d 675c 07be
000000d0: fbbc e33d 2bc7 07be 55ca fd3c cb98 17bd
000000e0: 7907 f1bd b97f 903c 3376 80bc 2960 bcbd
000000f0: 665e fcbd c278 01be ded6 c7bd 3ae9 a93c
00000100: a428 bb3d cf51 f4bc b5e5 8abd a8e4 78bd
00000110: 8745 4fbd 1f4f cbbd 5b24 3c3d 21fb 803d
00000120: 35b1 c03c 4b8e 2f3d bdc3 0e3d 60c7 ef3d
00000130: 31db 1cbc 0e98 d2bc e182 033e 4484 c9bd
00000140: f959 343d f948 723d 58a6 eabd 3769 3f3d
00000150: 6022 51bc 75fd aebd 06f3 8e3d a15b 6fbd
00000160: 65ca cdbd 35c0 12bd 56be 48be 5c2e ebbc
00000170: 8cba 003d 339c 0a3e dc45 c83d 3596 023d
00000180: 696c 943d 9357 b53d fdaa 163c 2fc0 033e
00000190: 64c8 a53d 377f ae3d c67f 323d 070b a5bd
000001a0: cd5a 8cbd 1a18 e3bd b071 e73c c929 c0bd
000001b0: 21d6 7a3c 43d0 dc3d 80af 193e 249a 7a3d
000001c0: 550a b53d acfb e23c dd21 65bc ffb2 a8bd
000001d0: ebd2 d13b 08ac cfbc 3935 afbd 5173 763c
000001e0: 4d11 843d bdc6 ab3d 1507 893e 9fac e1bd
000001f0: 7323 613c 5ea3 ccbd 6cd9 c03d b76d 0cbb
00000200: b3d4 da3d 02ac d03d ff21 403d 7038 e1bc
00000210: 3bea 003d fb00 94bd db30 f03c bfba 7ebd
00000220: aae2 ed3d c776 f2bd 1911 05be 89b5 9a3d
00000230: 5528 aa3b d1d1 48bd 5e1c 1ebd 3fd2 a43d
00000240: bb04 bbbd d02f 34bc edb0 0dbe a757 80bb
00000250: fdf3 b23b aa91 ef3c fb71 b0bc 765b 3bbd
00000260: 6da6 34bd fe53 51bc 5760 693e 3d2f f3bd
00000270: e6f4 22bd 0a1a 913d 1c0f 9abd b4e0 ef3d
00000280: 1508 7a3c f219 1b3d 3dde e7bd ced0 903d
00000290: f531 e5bd 6024 a1bc 0930 fe3b 200c 503d
000002a0: e0db c43d 627f 93bd 0dae e93d 2974 84bd
000002b0: bacc 49ba 368f 153e 8939 b03d 4943 723a
000002c0: 05aa 91bd 5664 fa3d cb13 91bd db23 5cbd
000002d0: 522e a13d 70e5 d73d ca18 9dbd 4d7b 613d
000002e0: ebe5 923d 4c3f 54bd 386b c1bc 902a afbd
000002f0: cca3 a2bc 5427 c4bd 1ea6 063d bf08 90be
00000300: c6dd e33d c09a 5e3c c1ac 95bd b57d 8cbd
00000310: 1330 eebc 1054 03be 977e eebd f37a bfbd
00000320: 0c1d 27bd 2ec5 60bd a442 c63d d082 943d
00000330: b569 5b3c 3f0d 89bd 3487 9fbd e93d acbd
00000340: b00b 2a3c 650e 2bbd d462 8cbd 329f 903d
00000350: 00b1 d0bd 3806 27bc 3bab 0dbd cef5 c43d
00000360: e46a b13d e245 c8bd 7beb 2fbd 0e5e 91bd
00000370: a0c8 fa3d 2141 74bd a1a0 f5bd 7fc7 c43d
00000380: 29f0 e23d 5528 cbbd 5436 8d3d ac8e ba3d
00000390: 6fdd f4bd e6e3 3abd b999 353d 2af6 d5bd
000003a0: 23df 72bd 8675 463e cf66 663c 68ff 573d
000003b0: ca08 e03d 2821 9b3d 6da3 013d eec6 a93c
000003c0: c822 d3bd 76a4 14bc 996a 8bbd 737c efbd
000003d0: 5cdb df3d 6d46 90bc 25b6 8b3c 857a 0bbe
000003e0: 6d86 44bd 4b35 663d 3e94 643d 4453 bd3d
000003f0: 0668 33bd 7f2c df3b b9b3 e63c 2a4b 7cbe
0.049902774 0.03405706 -0.08750758 0.07495765 0.057403985 -0.09315589 -0.09547578 -0.09912373
-0.08393743 0.025534874 -0.117115594 -0.02112696 0.0624832 0.0011534175 0.0072012367 -0.12186199
0.06904664 -0.098874494 -0.0077169524 0.061021753 -0.034492776 -0.12474702 -0.06479128 -0.08705362
0.056130834 -0.03972435 -0.12251049 0.10477449 -0.009787985 -0.032574113 -0.028979883 -0.12779178
-0.09596624 0.05586547 -0.029740065 -0.07051434 -0.022767536 -0.12059461 -0.12627535 -0.013632132
0.11309551 0.067389585 -0.10259679 0.0849778 -0.07193923 -0.12893198 0.06543313 -0.07862682
-0.13077988 0.01976973 0.083908305 -0.13218842 0.111200295 -0.1325957 0.030980268 -0.03701095
-0.117690034 0.017639028 -0.015681362 -0.091980286 -0.123226926 -0.12643722 -0.097577795 0.020741094
0.09138611 -0.029824166 -0.067820944 -0.06076494 -0.050603416 -0.099272005 0.04593311 0.06297899
0.023521999 0.04286031 0.03485464 0.1170795 -0.009573744 -0.025707271 0.12842895 -0.09839681
0.044031117 0.059151623 -0.11457509 0.0467312 -0.012764543 -0.08544437 0.06979947 -0.058436994
-0.10048369 -0.035827834 -0.19603857 -0.02870863 0.031427905 0.13536148 0.097789496 0.03188153
0.0724724 0.08854594 0.00919604 0.12866281 0.08094862 0.08520358 0.043578885 -0.08058744
-0.068532564 -0.110885814 0.028252453 -0.0938297 0.015309841 0.1078191 0.15008354 0.061182156
0.08839861 0.027707897 -0.013985124 -0.08237266 0.006403317 -0.025350586 -0.08555073 0.015042142
0.06448612 0.08387516 0.26763216 -0.11019253 0.013741362 -0.09992097 0.0941647 -0.00214277
0.106851004 0.10189058 0.04690742 -0.027492732 0.03147338 -0.072267495 0.029320171 -0.062189814
0.11615498 -0.11839061 -0.12994803 0.07554156 0.0051927962 -0.04902822 -0.03860127 0.08047914
-0.09131762 -0.0109977275 -0.13837023 -0.003916699 0.0054612146 0.029244263 -0.021538725 -0.04574152
-0.04410403 -0.012776373 0.22790657 -0.11874244 -0.039784335 0.07085045 -0.07522413 0.117127806
0.015260716 0.03786654 -0.113216855 0.07071076 -0.11191169 -0.019670665 0.007757191 0.050792813
0.0961225 -0.07202031 0.11410151 -0.06467468 -0.0007698048 0.14605412 0.08604724 0.00092415937
-0.07112507 0.12226169 -0.07083853 -0.053745132 0.07870163 0.105418086 -0.07670744 0.05504923
0.071727596 -0.051818177 -0.023610696 -0.0855304 -0.019853495 -0.09577814 0.032873265 -0.28131673
0.11126284 0.0135867 -0.07308341 -0.06859914 -0.029075658 -0.12825036 -0.11645239 -0.093496226
-0.040799186 -0.054875545 0.096806794 0.07251513 0.013391902 -0.066919796 -0.0778946 -0.08410246
0.010378763 -0.041761775 -0.068547875 0.07061614 -0.1019001 -0.010194354 -0.034587126 0.09617196
0.08662966 -0.09778954 -0.04294918 -0.07098018 0.122452974 -0.059632424 -0.11993528 0.09608363
0.11080963 -0.09919802 0.06895128 0.09109244 -0.119562976 -0.045627497 0.044336054 -0.10447343
-0.05929483 0.19380769 0.014062597 0.05273381 0.109391764 0.075746834 0.031649996 0.02072474
-0.10309368 -0.009072414 -0.06807441 -0.11693659 0.10930511 -0.017611707 0.017054627 -0.13620956
-0.04797976 0.056203168 0.055805437 0.09244397 -0.043800376 0.0068107243 0.02816187 -0.24638048

encoder.4.bias f4 [16]
00000000: 4d8c a83c e206 f83b 802d 84bc 0521 4d3c
00000010: ff66 9c3d 1371 8b3c 4cac 1dbe acae 033d
00000020: 0ad4 823d f4d1 043d 9740 0a3e 1fb5 7bbd
00000030: dffb eb3c 234a f63d be5b 953d 208a 1b3d
0.020574713 0.00756918 -0.016134977 0.0125200795 0.076368324 0.017021691 -0.15397757 0.032149002
0.063880995 0.03242679 0.13501202 -0.061452027 0.028806625 0.12025859 0.07292889 0.037973523

decoder.0.weight f4 [64, 16]
00000000: 7521 1b3e cd8a 893d aebd 233d 42d5 9b3e
00000010: a169 963e 878a 3cbe 1afe 6c3e a132 8ebc
00000020: c33c 783e fd63 823c beaf 6ebd 81fa b73d
00000030: d6a5 b7bd f2f2 8fbd 4564 97bc c06d 4f3d
00000040: 1ec5 263e 6af0 a4be 4b14 9abe 93ac 9e3d
00000050: ae1a d93d cdae 483d dacc 223e 7897 0bbe
00000060: a5da 70be 4dcb 11be 9afc 403e 8e99 61be
00000070: 9c37 123d e4b8 56be 96e1 ecbd 57d6 cebc
00000080: 100c 7fbd 2c84 0ebd ff1c 6a3e 7acb 2a3e
00000090: 658b c03c 3f16 01be da02 02bd f575 4fbe
000000a0: 22f0 d33c 4bf5 b2bd 2a88 1d3e 3469 853c
000000b0: 79c9 293e 4f9f 8b3c fef1 773e 936a 0b3d
000000c0: ff47 6bbe b843 1fbe e2db 7bbd b6dd 7abe
000000d0: 7b76 143e 59be 343e ab79 d73d a8be 10be
000000e0: acc3 163e 02dd 5ebe 5e2a a2bd 2770 04be
000000f0: 44c5 50bd 6609 6a3e 3bac b93c c75d 82be
00000100: 67c8 d7bc 19f3 393e 1fc8 c4bc 37d2 8fbd
00000110: 06a2 e03d e480 c63c 9e74 52be 5b8e 9f3d
00000120: b6a2 49be fb36 38be f71c 5dbe e36c 543e
00000130: 218c 683e b629 49be d43d 3b3e 0a32 84bd
00000140: 4220 63be 20ca b9bd b80a 30be c87f 973d
00000150: e40f 54be 4255 40be b52a 23bd adf7 a2bd
00000160: b737 43be a5f4 c3bc e8b4 6abe f387 72be
00000170: 7d30 2f3e 7f57 f9bc b2a1 363e 86a7 25be
00000180: 9e6b 29be 0c49 3ebd fa42 cbbd 96f7 7abe
00000190: e7d5 2c3b ad6a 7a3e 91c3 08be 807f 103e
000001a0: 6da2 bebd 79ae 7b3d b0d0 6d3e 98f7 663e
000001b0: fab3 043e 200b 70be 31a3 27be c930 0e3e
000001c0: 0bc8 0fbc 4d7d 9d3d ad59 00bd 4a5d 41be
000001d0: e210 683e af30 323e a5f6 5dbe 341b da3d
000001e0: 5e2f 08be bc1d bb3d 98c3 e8bd e1b7 b7bd
000001f0: 9c7a 723e 218e 813e 3a89 bb3c f8bd 14bc
00000200: 1d1f 5dbd 5b2c d53d 9c4d 163e aa9b b93d
00000210: 4d6f 343e 5846 12be 430d 10be a482 483e
00000220: e902 0fbe 6a9e b3bd ca1e 133d b810 343e
00000230: 804c 823d bf4e e73d e2c2 e53d 45b6 1f3e
00000240: b589 0e3e 5300 fabd a011 04be c403 723b
00000250: a702 113e 16b7 503e 248b 47be 0dcd 6fbe
00000260: f19a 8abe 4069 3cbe 7208 35bc e538 16be
00000270: 94e3 52be 7e5c 25be 8b9e 953d 270e 4d3d
00000280: 81df 03be 45ea 6bbe 0e6b e4bb 8f32 653e
00000290: 354b 92bd cc79 693e 35c8 093d 7e02 853d
000002a0: 9b56 58be 0537 0dbe 6eca 69be e568 8c3d
000002b0: d041 2e3e 7204 f8bd 8fd2 fdbd 1d9f d83d
000002c0: 0115 423d d270 2a3e 465c 3f3d a091 6b3d
000002d0: 962a 873e 38a5 74bd 7004 1dbe 9f84 c5bd
000002e0: b0d4 38be 0e76 393e 8f60 26bd 4606 2b3e
000002f0: 46fc cbbd dc44 7e3e 352e 08bd d55d 463e
00000300: 45dd 523e 12e3 883d d9a6 863d 2ab5 383c
00000310: 8984 873e f196 443d b048 2dbd aa3c 833e
00000320: 4d17 4a3e 637f 5f3e 95eb 6f3d b46a 28bd
00000330: 41cf 79be e31d 6c3e 8ab0 5cbe 0672 29be
00000340: 1007 3bbd 58bc 24be 017e 67be 999f f9bd
00000350: e5eb 843e 3f7a 33be 27a8 6fbd c3ab a1bc
00000360: 8860 41bd 7cac f23d c2d5 083e f0ec b83c
00000370: 1949 0dbe 4741 273d f556 60be 237f fa3d
00000380: b22c 4f3e 5608 693e 15ca edbc 671f 123e
00000390: 58c1 d63d 1ec0 09be b3e7 c73d 46d4 fbbd
000003a0: 2816 b83d 39b3 fc3c afe9 66be d7ca 1b3e
000003b0: e39e 433c 06cd 283d f324 b7bd ff32 fd3c
000003c0: 2289 d53d 81fa 543e 7914 c63c 9ba8 4b3c
000003d0: e025 73be 05e7 dcbd cd1b cb3c 91fd 3cbe
000003e0: 761a ab3d e32e 00bd 9805 a53d 3fc7 21bd
000003f0: 1348 e4bd f24d 5bbd 71fc 4c3e 8046 c83d
0.15149482 0.06715927 0.039975815 0.3043614 0.29377463 -0.18412219 0.23143807 -0.017358126
0.24241929 0.015916819 -0.05827307 0.08983327 -0.089671776 -0.0702876 -0.01848043 0.050641775
0.16286132 -0.3221467 -0.30093607 0.0774776 0.10600792 0.048994828 0.15898457 -0.13632
-0.23520906 -0.1423771 0.1884636 -0.22031233 0.035697564 -0.20968968 -0.115664646 -0.02524869
-0.062267363 -0.034794018 0.22862624 0.16679183 0.023503968 -0.12606142 -0.031741 -0.20259841
0.02587134 -0.08738192 0.15383974 0.016285516 0.16580762 0.017043738 0.24213406 0.034037184
-0.22976683 -0.15553176 -0.061488993 -0.24498639 0.14498322 0.17650737 0.10521253 -0.1413523
0.1472308 -0.21763995 -0.07918237 -0.12933408 -0.050969377 0.22855148 0.022665134 -0.2546217
-0.026340676 0.1815914 -0.024021206 -0.07022517 0.109684035 0.024231382 -0.20552298 0.07790824
-0.19690976 -0.17989723 -0.2159308 0.20744662 0.22709705 -0.19644818 0.18285304 -0.06454857
-0.22180274 -0.090717554 -0.17191589 0.07397419 -0.20709187 -0.18782523 -0.03983565 -0.07957397
-0.19064222 -0.023920367 -0.22920573 -0.23684673 0.1710834 -0.03043723 0.1783512 -0.16177186
-0.16544959 -0.04645638 -0.09924884 -0.24508509 0.0026372613 0.24454756 -0.13355853 0.14111137
-0.09308324 0.061445687 0.23224139 0.22555387 0.1295928 -0.23441744 -0.16370846 0.13885798
-0.008775721 0.07689915 -0.03133552 -0.18883243 0.2266269 0.17401384 -0.21676119 0.1064972
-0.13299319 0.09136531 -0.113654315 -0.08970619 0.23679584 0.25303748 0.022892583 -0.009078495
-0.05398475 0.10408851 0.14678043 0.09062894 0.17620583 -0.14284647 -0.14067559 0.19581085
-0.13965954 -0.087704495 0.035918035 0.17584503 0.063622475 0.112943165 0.112188116 0.15596874
0.13919719 -0.12207093 -0.12897348 0.0036928514 0.14161168 0.20382342 -0.19486672 -0.23418064
-0.27071336 -0.18399525 -0.011049377 -0.14670141 -0.20594627 -0.16148564 0.0730563 0.050062325
-0.12878229 -0.23038585 -0.0069707697 0.22382568 -0.07143251 0.22800368 0.033638198 0.06494616
-0.21126787 -0.1379052 -0.22831127 0.068559445 0.17017293 -0.12110223 -0.123936765 0.105772234
0.047383312 0.166446 0.04671886 0.057511926 0.26399678 -0.059727877 -0.15333724 -0.09644436
-0.18049884 0.1811144 -0.04061943 0.16701612 -0.09960227 0.24830955 -0.03324719 0.19371732
0.2059222 0.06683935 0.065747924 0.011273662 0.26468304 0.04799551 -0.04230565 0.2563222
0.19735451 0.21825938 0.058574278 -0.041117385 -0.24395467 0.23058276 -0.2155172 -0.16547403
-0.045661032 -0.16087472 -0.2260666 -0.12188644 0.25961223 -0.17527102 -0.058509972 -0.019735223
-0.0472112 0.11849305 0.13362792 0.022573918 -0.13797416 0.040833738 -0.21908171 0.12231281
0.20231894 0.22757086 -0.029027024 0.14269792 0.10486096 -0.13452193 0.0976099 -0.12296347
0.08988601 0.030847179 -0.2255008 0.15214096 0.011939737 0.04121115 -0.089425944 0.030908106
0.10426547 0.20798685 0.024179684 0.012430335 -0.23744917 -0.10786251 0.02479353 -0.18456103
0.083546564 -0.031294715 0.080577075 -0.039496657 -0.111465596 -0.05354113 0.20018174 0.09779072

decoder.0.bias f4 [64]
00000000: 174c df3d c8ce a2bd c95f fdbd cfd2 233e
00000010: b0de 49be 9688 383e a97a 2ebe bd8d 053e
00000020: 895d 293e f6f4 953d fb57 febc ae18 55bd
00000030: c13d 243b b5f4 d43c e58c 87be 1960 2abe
00000040: e8b0 9bbd c45a c7bd 2419 b43d a20d a0bd
00000050: 2ff2 7f3e fa03 34be 7c47 bb3d a909 6e3e
00000060: 1845 813e 15e0 9b3d dcbb b8bd 992a cbbd
00000070: 454a 093e a33e 753d 78ab 153e 9a69 8a3e
00000080: f5b8 403d 9757 14bd 6232 753e 9c08 dcbd
00000090: d6f7 babd 21fc 1a3e 1957 353e b5fd d03d
000000a0: 7e46 24be b62f a73d b049 5ebd 26c7 523d
000000b0: 5467 2f3e 02b4 2ebe 63c5 bdbd c649 7e3e
000000c0: e70b 8b3e 4775 d83b 5729 71be 807c 183e
000000d0: 1717 c53e 77b5 35be b453 0ebe f19f d7bd
000000e0: 72b8 68bd 3dc7 a23e a88a d2bd 88a7 a63c
000000f0: 3c05 0dbd 2448 38be 213d f1bc f8f7 853e
0.10903185 -0.07949597 -0.12371785 0.15998386 -0.19713855 0.18020853 -0.17038979 0.1304235
0.16539587 0.07322113 -0.031047812 -0.05202549 0.0025061222 0.025995592 -0.26474681 -0.16638221
-0.076021016 -0.09734109 0.08793858 -0.078151 0.2499473 -0.17579642 0.09144494 0.23245873
0.25248027 0.076111 -0.09020206 -0.09920234 0.13407238 0.05987419 0.14616191 0.27033693
0.04705139 -0.036216345 0.23945001 -0.107438296 -0.09129302 0.15135242 0.17709006 0.10204641
-0.16042516 0.08163397 -0.054269493 0.051459454 0.1712926 -0.17060855 -0.09266164 0.2483283
0.27157518 0.0066057774 -0.23550926 0.14891243 0.3849418 -0.17745005 -0.13899118 -0.10528553
-0.056816526 0.31792632 -0.10280353 0.020343557 -0.03442882 -0.1799627 -0.029448094 0.26165748

decoder.2.weight f4 [128, 64]
00000000: 642e d23b 99ef 853d 0bda 9f3c a093 74bd
00000010: 33ee 3a3d 9b57 b4bd 4c6b 993d fdd4 e13d
00000020: 1f98 f4bd ce6d f8bc 9f47 693d bcb4 593d
00000030: fcac bbbd fe56 c5bd c67c ddbd 6a80 fdbc
00000040: ecd8 863d 3bd9 f93c a410 333d fd83 d63d
00000050: e0d2 06bb aacc f7bc 37e2 5c3d 83c2 01be
00000060: 1dd3 9dbd e579 00be bae3 7fbd 8933 96bd
00000070: 3692 e1bc d5c9 04be e11f bbbc a2d9 f0bd
00000080: e293 733d 5c48 88bd b3ab bd3d f398 093b
00000090: 0009 46bd 1c6d 7b3d 1566 853b 956f cbbc
000000a0: b98e 173d d615 b2bd d841 da3d 66cd 00bd
000000b0: 2add 90bd 9006 a1bd 411d d9bd 8914 cfbc
000000c0: 5718 fbbd 64fd 403d 8bd9 f6bc 28e4 b9bd
000000d0: 2f99 52bc 1423 a73c 18eb 093d f3b9 02be
000000e0: c8ab 0d3c f85a 643d 2598 023d 476e a43d
000000f0: b62c 913d 6171 26bd 4122 0cbe 8731 15bd
00000100: 2e10 56bd 9b02 74bd eaf8 50bd cfd7 103d
00000110: 4784 443b 9026 efbd 1265 b7bd 7635 a9bd
00000120: de70 9c3d 1759 803c b1b8 f03c 66ca bd3d
00000130: f9b6 423d 0a2a 643b bd5f 23bd 01ce a5bc
00000140: 0bc9 973d d936 53bb 0ffe d7bb cc0f fa3d
00000150: 9bdf 93bd a21e 5fbd 3caf a43d 6c63 a5bd
00000160: e724 0f3e d0f2 ef3d e204 c8bd 9c58 59bd
00000170: c80b 9dba b5fd 88bd 51ac 533d e2d0 18be
00000180: 4e15 be3d 6704 4a3d 9207 13bc 99cb c23d
00000190: 93d8 0b3e 9e29 0e3e 2d78 86bd 9818 703d
000001a0: 0893 e23d df01 25bb 70f5 1e3e 570d 3ebe
000001b0: e2e4 223b 3e12 c03c 6980 18bc 5166 0b3d
000001c0: a8f0 173e 9b3c 1c3e c86a d93d 4cbc 833d
000001d0: 6534 5b3d 069e da3d 24ef cf3d 41ef 6dbd
000001e0: 30d5 013e 007a 133e 3069 133e 5039 65bd
000001f0: 819a 3a3d a174 1d3c 9dfb 51bd fda7 7c3b
00000200: a398 713e 6fb0 483e 451a ee3d 5b88 053e
00000210: d0b8 e9bd f41d 873d ee38 bbbd acea acbc
00000220: 8dba 2fbd 12b7 223e 1d6b 78bc 6e57 8bbd
00000230: 3d52 2f3e d823 48bd 4908 763e ec62 843d
00000240: 824c fc3d e97d 053f 9c07 d23d da51 2c3e
00000250: d5b4 1abd 0cd7 223e 3983 9ebd ae96 8dbd
00000260: 9921 63bd cd27 99bd 961c c6bd 9fa4 453d
00000270: eb14 3ebe c9a5 b63d b644 0ebc ad6e e23d
00000280: e17a 913d b73a c03d 1362 443d cc24 053e
00000290: c3fb 89bb 2aa4 103d fdd8 573e c579 f23d
000002a0: 2402 3fbd c3ca 5abe 0275 cdbd b1f4 f63c
000002b0: 1329 593c f0a9 7fbd 1994 833c ab24 1e3e
000002c0: aa24 a53d 1275 91bd 0d08 e33d da37 fe3d
000002d0: 6cd8 ff3d cb5f 183e 25bb 18bd b37e 913c
000002e0: 6f17 99bc 5c6b 973e 6977 f73d da94 bf3d
000002f0: 7bbf 45bd 701d ec3d b012 a83d 73f3 75bd
00000300: 3400 063e 557b 983d 4698 26bd 3fa3 d2bd
00000310: 17e5 c0bc cee4 0dbe 55b7 81bd 2ca0 a63d
00000320: 29be 60bc 4091 13bb 2cbd 43bd 1148 b03d
00000330: 128f 913d 6dda 8d3d 6912 af3d 672b b0bd
00000340: fea5 c8bb 5a79 2a3d aa42 0dbc 395d 8f3a
00000350: 1389 ac3d f414 9bbd 4b99 55bc 2aca 663d
00000360: 5dfd 033e 9908 d23d b5d2 67bd 9c23 f33d
00000370: fb13 0f3e 8bb6 d13d 7246 96bc 61a4 48bd
00000380: 869f 63bd 579a 2cbd e089 c43d 99bb 4c3d
00000390: 2cca 943b ba5a 133e 5c2e 1a3d c155 1cbc
000003a0: 2136 b13d d112 afbd ca0a 533d b675 ef3d
000003b0: 0041 18bd 1712 833d 3081 06bd 5028 883c
000003c0: 5ea0 cf3d 8ff2 e83d ab43 f3bd 70da f73d
000003d0: 0134 8c3d 9f45 dcbc a07a ac3d 83f2 ab3c
000003e0: f4de ccbb e0f7 f83b 3873 8bb9 65f8 f03d
000003f0: 3985 47bd 4a8a b1bd 0958 a13a 9b69 f0bd
0.0064142216 0.0653984 0.01951315 -0.0597111 0.04563732 -0.08805772 0.074911684 0.110269524
-0.11943077 -0.030325796 0.05695307 0.053150877 -0.091638535 -0.09635733 -0.10814814 -0.030945022
0.06584343 0.030499091 0.04371704 0.104743935 -0.0020572469 -0.030248959 0.053926673 -0.12671857
-0.07706282 -0.12546499 -0.062473036 -0.07334048 -0.02753554 -0.12967618 -0.02284235 -0.1176026
0.059467204 -0.066544265 0.09261265 0.0020995706 -0.048348427 0.06138335 0.004071007 -0.02483348
0.037001345 -0.08695571 0.1065709 -0.031445883 -0.07073434 -0.0786258 -0.10601283 -0.025278347
-0.12260502 0.047116652 -0.03013303 -0.090767205 -0.012853905 0.020402469 0.03367147 -0.12766246
0.008646913 0.055750817 0.031883378 0.08028846 0.07088606 -0.04063547 -0.13684942 -0.036424186
-0.052261524 -0.059572797 -0.051018633 0.03536206 0.002998607 -0.11677277 -0.089548245 -0.0826215
0.07638715 0.015667481 0.029384943 0.0926712 0.047537778 0.0034815096 -0.039886225 -0.020239832
0.07411393 -0.0032228737 -0.0065915654 0.12210044 -0.07220384 -0.054472573 0.08041236 -0.08075604
0.13978921 0.11716235 -0.09766556 -0.05306302 -0.001198166 -0.06689016 0.051678006 -0.14923432
0.09281407 0.049320605 -0.008973973 0.095114894 0.13656835 0.13883063 -0.065658905 0.058617204
0.110632 -0.0025178117 0.15523314 -0.18559776 0.0024855663 0.023446199 -0.009307959 0.034033123
0.14837897 0.15257494 0.1061607 0.06432399 0.053516764 0.10674672 0.10153034 -0.0580895
0.12678981 0.14402008 0.14395595 -0.05596286 0.045557503 0.009610326 -0.051265348 0.0038552277
0.23593383 0.19598554 0.11626104 0.13040297 -0.11412203 0.0659751 -0.09141718 -0.021107994
-0.042902518 0.15890148 -0.015162257 -0.06803785 0.17121215 -0.04886231 0.24026598 0.0646418
0.1231928 0.5214525 0.102553576 0.16828099 -0.03777011 0.15902346 -0.077398725 -0.069135055
-0.055451963 -0.074782945 -0.09673421 0.048252698 -0.18562667 0.0891834 -0.008683374 0.11056266
0.071035154 0.09386199 0.047945093 0.13002318 -0.0042109205 0.03531281 0.21078868 0.11839632
-0.0466329 -0.2136641 -0.10032083 0.030145975 0.013254422 -0.062417924 0.01606183 0.15443675
0.08063634 -0.071024075 0.1108552 0.124129966 0.12492451 0.14880292 -0.03728785 0.01776061
-0.018687932 0.29574096 0.120833226 0.09354563 -0.048278313 0.11529052 0.08206689 -0.060046624
0.13086015 0.07445399 -0.040672563 -0.10285043 -0.023546739 -0.13856813 -0.06333796 0.08136019
-0.013717213 -0.0022516996 -0.04778783 0.086074956 0.071073666 0.06926427 0.08548433 -0.08602028
-0.0061233034 0.041619636 -0.008621851 0.0010937817 0.08424582 -0.07572356 -0.013037036 0.056345142
0.12889619 0.10255546 -0.05659743 0.11872026 0.13972466 0.102398954 -0.018344138 -0.04898489
-0.055572055 -0.042139377 0.0959661 0.049983595 0.0045407023 0.14390078 0.037641868 -0.00954193
0.086529024 -0.08548511 0.05152396 0.116923735 -0.037171364 0.06399935 -0.032838047 0.016620785
0.101380095 0.113743894 -0.11878141 0.121022105 0.068458565 -0.026888667 0.08421826 0.020989662
-0.006252164 0.0075979084 -0.0002659799 0.117661275 -0.048711035 -0.08668955 0.0012309562 -0.11738893

decoder.2.bias f4 [128]
00000000: 826d a23d d076 b7bc c949 653e 839f 3b3c
00000010: 107b 7abd b478 e93c 1353 3fbd 7257 cd3c
00000020: 05b1 2bbb fcf3 9a3d 80ea 97bd 2190 94bd
00000030: d259 49bd 5f51 71bb 5f5d fd3d 75da 883d
00000040: 0d42 aa3d 03c6 a43d 85b0 be3d 544c 9d3d
00000050: 13c9 393b 2f7a 5bbd 33fd 043e 7726 01bd
00000060: f442 ddbd 4af5 78bd 543a 103e 56c8 4b3d
00000070: deda 483d 7d0d 573c cc69 b6bc dfb7 b23c
00000080: d5d0 813d 66ba ac3c 109b c7bc 6849 aebc
00000090: cb11 ff3b f913 5abb 353a 6fbd 07c4 e0bd
000000a0: b1da 0d3e 4454 8d3d 0f80 3a3c 2ead 9c3d
000000b0: db4f e03d 24e1 133e b6ed 74bc 38df 00bc
000000c0: 7624 d43d b08b d83d a2ff 1ebd 53b3 8a3d
000000d0: 6906 ca3b 3ac6 653e 0e0e 273a 4729 a0bd
000000e0: 4011 debc 54aa 40bd 692f 883d c157 9a3c
000000f0: 4e10 3fbd 6e7a 033d 2964 19bd aa71 15bd
00000100: 4165 8a3d 0a70 473d c7e9 b5bd a444 62bd
00000110: c46f 14bd e9d0 2b3d ca6a 8ebd 2b9a 2d3d
00000120: 142d 0f3c 0db7 793d 842f bb3e 9a54 d33d
00000130: ea7e bebb 3d00 5cbd 3e24 a4bd 7435 24bc
00000140: 4aa1 5fbd ad59 d03d 01a1 923d 4404 5d3d
00000150: 233b 3fbb 3572 5dbd a011 e0bd fd9e 813d
00000160: a7d0 873d c8a8 4b3d 0079 d33c f984 3f3d
00000170: 2c8c b33d 6c4b e3bd f7a6 27bc 784d b7bd
00000180: 84ab 543e 4782 553d 74b1 d53d a2d9 353d
00000190: 5624 89bd 4633 fa3c 5661 35bc 2f32 f5bd
000001a0: 8231 a6bd a6bf 81bd 31dd 0b3e e6c0 a53d
000001b0: 5102 b7bc 62d1 fcbc 8f17 d23d f9fd 963d
000001c0: 2085 5d3d 8aac 36bc 3abe 373d 6058 f1bd
000001d0: 413d 423e 8cc0 8fbd fc96 e8bc 0ce6 463d
000001e0: ed27 3fbc fd0c f1bd dd01 013c 1d26 f43d
000001f0: 858e babd 95bb d3bd 2e4a bd3d 2425 693c
0.07931043 -0.022395521 0.22391428 0.011451605 -0.061152518 0.028499939 -0.046710085 0.025066111
-0.002619804 0.075660676 -0.07417774 -0.07254053 -0.049157925 -0.0036822183 0.12371325 0.06682292
0.083133794 0.0804558 0.09311012 0.07680574 0.002834861 -0.05358332 0.12987213 -0.031530824
-0.10803786 -0.0607808 0.1408475 0.049751602 0.049036853 0.013125774 -0.022267245 0.021816192
0.0633866 0.021084975 -0.024365932 -0.021275237 0.0077841035 -0.0033276065 -0.05840512 -0.10974889
0.13852955 0.06900838 0.011383071 0.07650219 0.10952731 0.14441353 -0.014949253 -0.0078657195
0.10358517 0.10573518 -0.03881801 0.06772485 0.006165315 0.22438899 0.0006372639 -0.07820373
-0.027107835 -0.047037438 0.06649668 0.018840672 -0.04664641 0.03209918 -0.037449036 -0.03648535
0.06757594 0.048690833 -0.0888248 -0.055241242 -0.0362394 0.04194728 -0.06953962 0.042383354
0.008738775 0.060965586 0.3655969 0.10318871 -0.005813469 -0.053711165 -0.08014725 -0.01002251
-0.054597177 0.10173354 0.07159615 0.053959146 -0.0029179535 -0.054063994 -0.10940862 0.06329153
0.06631594 0.04972151 0.025814533 0.046757672 0.0876697 -0.1109837 -0.010232679 -0.08950323
0.20768553 0.052126195 0.10434237 0.044397004 -0.06696384 0.030542027 -0.01107057 -0.119724624
-0.081149116 -0.06335382 0.13658597 0.08093433 -0.022339972 -0.03086156 0.102584 0.0737266
0.054082036 -0.011149535 0.04485915 -0.11784434 0.18968679 -0.07019147 -0.028392307 0.048559234
-0.011667234 -0.117700554 0.007873979 0.11921332 -0.09109215 -0.10338513 0.09242664 0.014230046

decoder.4.weight f4 [200, 128]
00000000: 6699 963d 2978 013c 9617 7d3e 9dc1 f33c
00000010: da92 02bd a275 99bd 04b9 f93d f279 113d
00000020: 31d4 6bbd 79f7 1b3c 8daa 12bc 148a c23c
00000030: 7bde 2f3c 69ee 1dbd a04a 613d f068 3f3d
00000040: 4df3 b4bd 946c c2bd 87b3 dd3c e73d 9e3c
00000050: c4d2 4f3b 6d40 053c b839 533d b640 343d
00000060: e90a a6bd 0904 cd3c 8eda 7e3d 0a1f 193c
00000070: 92ac 00bd 4f66 18bd da1e 323d 0286 773d
00000080: 0ef0 7fbc 3e62 07bc 70f4 99bc 5754 a4bb
00000090: ab54 9ebd 6c18 b9bd f443 66be 1912 343d
000000a0: e55d 1a3c 0304 75bc 0919 69bb 2543 c83c
000000b0: ddcf 2cbd 4bd6 62bd dc62 0f3d e198 b1bd
000000c0: 40ea 823d 51c4 93bd af8c 58bd 6a69 bfbd
000000d0: d861 88bd f214 983d 569c 8abd 6381 d53c
000000e0: f8fe 36bc 420d 873d 5ab3 2f3c afeb 8e3d
000000f0: b14e dd3b 2da1 423d 872f d4bc 971e ba3c
00000100: 1a63 163e 1071 183c 1b8b 9f3b 4346 dcbb
00000110: 4b90 18bc 8449 3d3c d95a 4a3d f139 c3bc
00000120: c6a0 5a3d f7c9 893d 0078 e53d 83d1 bb3c
00000130: 9064 5fbd 2ba1 0a3c c4f3 fdbc 500c 0b3d
00000140: 539f febc af47 a0bd bc01 84bd ef84 ebba
00000150: 1f9a 0dbd aa6b 5fbd cef3 483d fdd8 babd
00000160: 048f 44bc 0cb6 c3bd 8f32 33bd 3b58 a9bd
00000170: e7a3 e9bc 5d96 0e3d 1377 9abd 2128 3fbd
00000180: bed1 fd3d 5310 9dbc db74 80bd e1c6 503d
00000190: 84d2 4e3b d5ec c5bc ce1b 303d 994f c8bd
000001a0: b398 613d f43c 8b3d acb8 c73c da9b 11bd
000001b0: 4a03 923c 4bd7 863d 1d8a bbbc 14cf 793d
000001c0: 7b4d 6a3d 6a41 3ebd a88f d8bc bb36 94bd
000001d0: 5df7 b53d 3864 c93c 9606 f1bc fba6 70bd
000001e0: efe1 cabd 8848 5c3d 4440 88bd 7bb0 e7bd
000001f0: d243 8d3c 87e1 a63b 72fe 81bd 09b2 d1bd
00000200: 1e2b 12bc 9bb0 e83d 32ec 853e 3fc7 c4bd
00000210: 88a6 c4bd e00e da3c 0445 233d 9a9c bbbd
00000220: 2ea7 87bc c2bf 143c 9b98 9fbd 546c 803b
00000230: 37de 5a3c e8a1 a93a 8dd8 313d 7a51 593d
00000240: 9d56 bebd c40f 52bd cc7a 63bd 2d6c d1bc
00000250: 561c 46bd b412 443d 45c3 19bd 768f 083b
00000260: 6978 293c 796f 93bd b32c a53d afd3 e23c
00000270: 6282 be3c 51f7 12bd 8ef8 adbd 58be 513d
00000280: d367 f33c 4965 6dbd 4f45 a3bd 6360 0f3d
00000290: 8345 0f3d fc0f 9e3c 176e 4ebe e935 92bd
000002a0: cf9e 9c3d 0ec9 fa3b c70d c13d b1d6 6cbb
000002b0: 9b51 9dbd e080 bcbd 0ec1 023d b57f 10bd
000002c0: 6cd9 d3bc 5476 b4bd ee8d 06bd fa54 cfbd
000002d0: 847c 953d ca7c f7bc 1e73 583d 062f 313d
000002e0: bb36 713d a5b9 e03c c9d8 fabc ae44 10bc
000002f0: 3e45 bd3c 8244 083d f44b 303d 0a06 4b3d
00000300: 6233 eb3d b13b a3bd 0068 b2bd a1c2 aebd
00000310: f3a6 9ebd 96e6 b8bd baa7 533b 8d68 94bd
00000320: a7eb 063d 0455 dc3b 453d 023e 820a 31bd
00000330: 611a c8bd 18f1 2b3d 31ac 6fbd e05d 02bd
00000340: 1fbc f13c 3612 2cbd 1443 cbbd e788 c2bc
00000350: a456 1d3d 365b a03c 516f dbbc 2090 5dba
00000360: 42d6 743d 9e40 633d eb8b 8b3d d3b3 83bd
00000370: 1646 383c 849f 8d3d 09d9 c8bc fb6a 6cbd
00000380: 331e 0d3e f1d3 8abb 855c 73bd b5b4 203d
00000390: d359 05bd 7e3b 8a3c 6dbf b33d af33 dbbd
000003a0: e890 c5bd 2087 06bd 05c8 c5bd 6de5 9ebd
000003b0: 6cc8 d8bc 768a 903d f35b 593d 8439 a4bd
000003c0: 4b37 13bc 5956 163d f330 be3d 97eb c03b
000003d0: f4ad 3d3c 74d5 0c3d d2b1 73bd fe23 9f3a
000003e0: 5e59 27bc dd9f 8bbd aec2 8e3d 2dc2 9a3d
000003f0: cca0 38bd 008a 9bbd 704c c73c 6be7 783c
0.07353477 0.007902184 0.24716029 0.029755408 -0.03187833 -0.0749314 0.12193492 0.035516687
-0.05757541 0.009519451 -0.008951795 0.023747481 0.010734196 -0.038557444 0.05500281 0.046730936
-0.088354684 -0.09493366 0.027063144 0.019316627 0.003171132 0.008133036 0.051568717 0.044007026
-0.0810755 0.025026338 0.06222015 0.009345779 -0.031414576 -0.037206944 0.043486454 0.060430534
-0.015621198 -0.008263169 -0.018793315 -0.005014937 -0.07730993 -0.09037861 -0.2248686 0.04396257
0.0094218 -0.01495457 -0.00355679 0.02444608 -0.04219042 -0.055380147 0.03500639 -0.086717375
0.06392336 -0.07215179 -0.05286854 -0.09346278 -0.06659287 0.0742587 -0.067681 0.026062673
-0.011169188 0.065943256 0.010723913 0.06978547 0.0067537655 0.04751699 -0.025901569 0.022719664
0.14686242 0.0093043 0.0048688776 -0.006722243 -0.009311746 0.011553172 0.049403045 -0.02383134
0.05337598 0.06727975 0.11204529 0.022927051 -0.054539263 0.008461277 -0.031000026 0.03394729
-0.031081831 -0.078261726 -0.06445643 -0.0017968694 -0.03457081 -0.054546036 0.049060635 -0.091234185
-0.011996988 -0.09556207 -0.04374939 -0.08268782 -0.028520538 0.034811366 -0.07542243 -0.04666913
0.12393521 -0.019172823 -0.062722884 0.050970916 0.0031558583 -0.024160782 0.042995267 -0.09780807
0.055077266 0.06798735 0.02438005 -0.035549022 0.017823834 0.065840326 -0.022893006 0.0609885
0.057202797 -0.046449102 -0.026435688 -0.072370015 0.088850714 0.02458392 -0.029422086 -0.058752995
-0.09906375 0.05378011 -0.06652883 -0.11312958 0.017244253 0.005092803 -0.0634736 -0.10239036
-0.008921413 0.1136181 0.26156765 -0.09608316 -0.09602076 0.026618421 0.03986074 -0.09160729
-0.01655921 0.009078922 -0.07792779 0.0039191637 0.013358644 0.0012941929 0.04341941 0.053056218
-0.09293864 -0.051284567 -0.05553703 -0.025564278 -0.048366867 0.0478694 -0.03753974 0.0020837463
0.010343649 -0.07198996 0.08065166 0.02768883 0.02325553 -0.03588039 -0.08494674 0.051206917
0.029712593 -0.05795792 -0.07972204 0.03500403 0.0349784 0.019294731 -0.20159183 -0.07139189
0.07647478 0.007653362 0.09426456 -0.0036138708 -0.07681581 -0.092042685 0.031922393 -0.03527804
-0.02586051 -0.08811632 -0.0328502 -0.1012363 0.0729914 -0.030210871 0.05284416 0.043257736
0.058890086 0.027432272 -0.03062095 -0.008805437 0.023104306 0.03326846 0.043041185 0.049566306
0.1148441 -0.079703696 -0.08711243 -0.08533216 -0.07746687 -0.09028356 0.0032296018 -0.07246504
0.03293958 0.006724002 0.12718685 -0.04322291 -0.097706564 0.04197797 -0.058513824 -0.031827807
0.029508648 -0.042009555 -0.099249035 -0.02374692 0.038412705 0.019574743 -0.026786478 -0.0008451957
0.059774645 0.055481546 0.068137966 -0.06430783 0.011247179 0.06915191 -0.024517553 -0.057719212
0.13781051 -0.004236691 -0.059414405 0.039234836 -0.032556366 0.016874071 0.08776746 -0.10703217
-0.09646779 -0.03284371 -0.09657291 -0.07758603 -0.026462756 0.07057659 0.053066205 -0.08018783
-0.008985351 0.03670344 0.0928668 0.0058874595 0.011577118 0.034383252 -0.059495755 0.0012141464
-0.010214178 -0.06817601 0.06970726 0.07556567 -0.045075223 -0.07594681 0.02432844 0.015191893
