development/model/model.pth (torch, 284562 bytes, 12 tensors)

encoder.0.weight f4 [128, 200]
00000000: bafc 4f3d 4125 033c f67a ca3d d46d 2a3c
00000010: 6cfc d5bc 11c6 723d c6ef b6bc 4404 653d
00000020: 9328 25bb 9ad3 1abc a1bc 863c 98db 46bb
00000030: 4de1 7abc 88c8 b13b 2721 f2bc 3b13 0c3c
00000040: 47f3 01bd 9fdc 373c 564f e6bc 6309 2cbd
00000050: 8acd 5b3b 73be 9abc d7b6 4c3c 54fa 2c3c
00000060: eaf3 6dbb 1b8f e23c a7af 573c de2b fabc
00000070: 1dd0 b6bc 0ec1 2b3d f558 d8bc e23d 9fbd
00000080: f2ef f3bc 10ac 543d 1769 7fbc 40c7 243d
00000090: 2cf4 7bbd 1ec5 c6ba 2796 3fbc eb93 c6bc
000000a0: f984 4cbc b990 34bd 4407 723c c8d4 cebc
000000b0: 3d3c a5bb 0432 8c3c 925e cf3c 7a1d 21bc
000000c0: 7466 00bc 73d8 eabc 9037 8fbc 8e06 1f3b
000000d0: 52fa e3bc ab14 1abc 001d acbc 3c50 023d
000000e0: d2a1 4dbd cc01 3bbd f633 fabc 4f34 26bd
000000f0: 42d7 40ba 3ff7 41bd 1bd4 93bd c715 3ebd
00000100: 9fc0 0cbd 9f58 b1bc 2c3f 2fbd a3b1 86bd
00000110: c0c1 a53c 972a 72bd fe16 afbc 5a3c f2bc
00000120: 5fc3 4f3d 03bc 3a3c 342c d83c dca2 cabc
00000130: 0e3b d23c 5f62 083d 58d8 63bd 19a3 0a3d
00000140: fd97 a33d d591 073d 3202 1abb 5652 333d
00000150: 61a1 84bd ee32 dabc ee43 21bd 8809 1bbd
00000160: 6665 05bd f481 f4bc 74c9 0e3d a773 babc
00000170: 7cdc 513c a3c8 e63b 5f0e bbbd c956 3abb
00000180: 7cd5 3f3c 1406 64bd 5e51 0dbc 489f 87bd
00000190: ade0 0e3d eba3 c3bc caae 383d c5a4 c43c
000001a0: 7734 0ebc dbb4 2d3d 9b15 613d 0648 94bc
000001b0: fb4c d53c 2506 a8bc 3acf 253c b184 973d
000001c0: 66f2 9fbd 3a3b 84bb 841a 383d eff9 963d
000001d0: 9146 7f3d a954 0a3d 169c c33d 5f08 663d
000001e0: bf70 963d 7a41 783d 4755 173d 1d6a ef3b
000001f0: ca64 013c 6a4b 303d 1476 a03c e868 7f3d
00000200: dfb7 a0bc 7fe1 aa3d dc80 623d f632 1f3d
00000210: 3a84 16bd 64c2 eb3d 48d5 d43d 88ce 053d
00000220: 720a 913d 37a4 21bb 5f53 e13d 3168 083d
00000230: de63 6d3d ce4f 113d ea37 3c3d 8d64 273b
00000240: e1ca a83c 3bdb 0d3d 5c73 b6bd 43ab c1bc
00000250: d290 20bd 53ad 573d 543f 4d3d a371 f6bc
00000260: 5004 023c 4d4b 95bc a0f4 5cbd 5e63 33bd
00000270: 086f 5bbc e7ca 1d3c 71dc 0b3d a2b8 b63c
00000280: 90cc fabc c72c 353d 88cb 0abd 78e7 e1bc
00000290: 928b fe3d 9d6f bfbc 08b6 293c 2474 523d
000002a0: 34d9 19bd 2ec7 3b3d fe28 293d 0dff aa3d
000002b0: bb61 953d c844 053e 539d 073c 2a5e f73c
000002c0: 5f34 843d 67fe 843d 7428 a83d de7f 323d
000002d0: f6fd 823c 16b0 abbb aca4 b9bc 0f44 e3bc
000002e0: 19a6 d6bc 673b cbbc 1594 943c c117 94bd
000002f0: 384c 96bd 3ae3 c83c f983 06be d7c4 8fbd
00000300: 504c 02be 3aa4 5fbd f280 e5bd eccb 13be
00000310: 815b 61bd 399a 23bd 5586 b3bd 774b a4bd
00000320: 06b2 cb3c 6704 743c e43c 68ba 8739 bd3c
00000330: d226 583a 7523 8abc d026 bf3c b36e 81bd
00000340: 04e9 a93a 0d1d 52bc d119 b4bc bbde 1c3d
00000350: afd6 753d fc8c c03c 1d2e 0abc 5b2a 2a3d
00000360: 221e 5bbc ae97 203d a911 fc3c 07fb d63c
00000370: 55bc 803c a3de 803d 1a73 643c 8871 083d
00000380: 58bf 39bc 898e be3d 940b ce3d c83d 8c3d
00000390: 6aad a73d b4fd 3f3d fc12 ad3d 08f6 a03d
000003a0: a399 d63d 1300 f23d 9696 a83d f6cc a53d
000003b0: baa4 b13d 114e 023d cacd 953d 84a4 fd3d
000003c0: bcfb c73d bf29 773d 2a69 1a3d a4cf 073c
000003d0: d996 8e3d 6e8e 693d e52c 1f3d b425 793c
000003e0: 7238 153d 0d5f 26bd 9560 923c 52d8 c4bc
000003f0: 12ff 20bd 8236 7c3b a4a4 503b 19e8 17bd
0.05077813 0.0080044875 0.09886734 0.010402162 -0.02612134 0.059270922 -0.02233113 0.05591227
-0.0025201186 -0.009449864 0.016447367 -0.003034329 -0.015312505 0.0054255165 -0.029556824 0.008549507
-0.031726148 0.011222034 -0.028114002 -0.04200114 0.003353926 -0.018889641 0.012494764 0.01055773
-0.0036308714 0.027656129 0.013164437 -0.030538496 -0.022316033 0.04193216 -0.026409606 -0.07775475
-0.0297775 0.051921904 -0.01558902 0.040229082 -0.061512157 -0.0015164947 -0.011693514 -0.024240455
-0.012482875 -0.04408333 0.01477224 -0.025247946 -0.0050425814 0.017113693 0.02531365 -0.009833688
-0.007836927 -0.028667664 -0.017482549 0.0024265382 -0.027829323 -0.009404342 -0.021009922 0.0318148
-0.050203152 -0.04565601 -0.030542355 -0.04057723 -0.00073562947 -0.047354933 -0.0721819 -0.046407487
-0.034363385 -0.021648703 -0.042784855 -0.0657685 0.020233989 -0.059122648 -0.021373268 -0.029569793
0.05072343 0.011397365 0.026388265 -0.02473586 0.025662925 0.03329694 -0.055626243 0.03384695
0.07987974 0.03309806 -0.0023499844 0.043779694 -0.06476093 -0.026635613 -0.039371423 -0.037850887
-0.032567404 -0.029847123 0.03486009 -0.022760225 0.012808915 0.0070429607 -0.091336004 -0.0028433076
0.0117086135 -0.05566986 -0.0086253565 -0.06622177 0.034882236 -0.023881873 0.045088567 0.02400435
-0.008679501 0.042408805 0.054952245 -0.01810075 0.026037684 -0.020510742 0.010120207 0.07398356
-0.07809906 -0.0040353807 0.044947162 0.0737189 0.062323157 0.033772144 0.095512554 0.056160327
0.07345723 0.06060932 0.03694656 0.007306351 0.007897565 0.04304067 0.019587554 0.062355906
-0.019618927 0.08343791 0.05529867 0.03886696 -0.036747195 0.115116864 0.10392243 0.032667667
0.070820704 -0.002466453 0.1100223 0.03330249 0.05795657 0.0354765 0.04595176 0.002554211
0.020604553 0.034632903 -0.08908722 -0.023641234 -0.03920061 0.05265553 0.050109223 -0.030083483
0.0079355985 -0.018224383 -0.05394423 -0.043795936 -0.013393171 0.009630895 0.034145776 0.022304837
-0.030615121 0.044232156 -0.03388551 -0.027576193 0.12428965 -0.023368651 0.010358341 0.05138029
-0.037560657 0.04584425 0.04129886 0.08349428 0.07294031 0.13014519 0.008277255 0.030196268
0.064553015 0.06493836 0.08210841 0.043578975 0.015990239 -0.005239497 -0.02266153 -0.027742414
-0.026202248 -0.024808599 0.018137017 -0.07231093 -0.07338756 0.024522413 -0.13136281 -0.07019966
-0.12724423 -0.054599978 -0.11206235 -0.14433259 -0.055018906 -0.039942 -0.08765856 -0.08022206
0.024865162 0.014893628 -0.0008859171 0.02309872 0.0008245531 -0.01686261 0.023333937 -0.06319942
0.0012963121 -0.012824309 -0.021984966 0.03829835 0.06001919 0.023504727 -0.008433846 0.0415443
-0.013373883 0.039207153 0.03077014 0.026242746 0.015714804 0.062924646 0.013943458 0.033311397
-0.011337124 0.0930453 0.10060802 0.06847721 0.08187373 0.04687281 0.084508866 0.07859427
0.10478523 0.118164204 0.08231847 0.08095734 0.08673997 0.03181273 0.07314642 0.123848945
0.097648114 0.060342547 0.03769795 0.0082892515 0.06962366 0.057020597 0.038861174 0.015206743
0.036430784 -0.04061799 0.01786832 -0.02402893 -0.039305754 0.0038484638 0.0031836415 -0.03708658

encoder.0.bias f4 [128]
00000000: fb00 43bd fc5e c2bc ace4 c03d adeb f23d
00000010: cd5c d13c 7b13 ca3f 4c85 11bd f8ff b93d
00000020: 90a4 a5bc ea8a babd 6085 3f3d 5f34 f1bc
00000030: 0548 40bd c4f2 e63d 270c a93d 201e ae3b
00000040: 3d1a 2b3e 3332 023e fbe9 c43d 2945 ed3b
00000050: a316 063e 7cb0 253d 2ad7 813d 3173 d6bd
00000060: 1a76 2f3e a177 7a3d a0e2 ab3c 3aa1 5d3d
00000070: e87b 783e 0108 ed3c 0f00 0a3e 25b0 00bd
00000080: 13af 2b3d 9b10 2c3e 7948 843e 8b99 c43d
00000090: 6cca 2d3d c246 99bd 87fe 12bc 89fc 1c3e
000000a0: 188b 50be a77d f9bc 3536 9c3d 465c cc3e
000000b0: 21bf fabc eef4 0abd 6c0e f33d adfa 9b3d
000000c0: 3a44 3e3f 4c9d 3a3c 93e9 23bd 8097 d0bd
000000d0: 473b 9e3b abcb 503d 9e1d a13d 2b2d 3cbd
000000e0: b366 ce3e 00b0 6b3d 4ec7 cb3d f4f1 713e
000000f0: d834 853d 6f1c 5ebc e800 3a3d 3a02 d13c
00000100: 9c63 bb3d b66b 99bd 9123 08bc 9481 21bd
00000110: fc98 443d 26f9 d8ba 26a5 773f 3bd5 d03d
00000120: 9ce1 a03d 82e2 423e d759 d8bd 4421 7ebd
00000130: dd36 bfbc 1273 453b 1ec2 4b3d 8be7 8c3e
00000140: 2b3e c3bc bf2a 86bd 7066 223e d439 dc3c
00000150: a2cc 833e 2bba 09bc a0d4 ba3f ed16 a63d
00000160: 1345 553e 7e58 7c3c 1552 a53b 085a 9fbc
00000170: 7520 fe3d 5aac af3d 986f 6b3d 23f5 573e
00000180: c70d bdbc 1d09 923e d48e 0e3f 173f cd3d
00000190: dbb0 fd3d b0ec 903b 57ff 073d a63c d4bc
000001a0: 946f 54bd 066d 943c ca15 533d 6d02 743e
000001b0: a660 743d ff29 613e 8e33 ba3d 40bb 853c
000001c0: 0f20 b0bc 8dbb 383e a6d0 fa3c fdc2 f7bc
000001d0: 989f 073e 4b13 2d3c 59a9 52bd 3daa 953e
000001e0: b4a6 453d 083c 00be d847 ae3e 3df5 f63d
000001f0: 74f0 dd3b a9f7 2b3e 3227 ce3d 56d0 883f
-0.047608357 -0.023726933 0.09418616 0.11861358 0.025556946 1.5787195 -0.035527512 0.09082025
-0.020220071 -0.09108527 0.046758056 -0.029443918 -0.046943683 0.112767726 0.08254271 0.00531365
0.16709228 0.12714462 0.09614941 0.0072409105 0.13094573 0.04045151 0.063398674 -0.1047119
0.17134896 0.061149243 0.020982087 0.054108836 0.24266016 0.02893448 0.13476585 -0.031417985
0.04191501 0.1680321 0.25836542 0.095995985 0.042429373 -0.07484199 -0.008971817 0.1533071
-0.2036556 -0.030455424 0.07627527 0.3991415 -0.030608715 -0.03392499 0.11867985 0.07616172
0.74322855 0.011390042 -0.040017676 -0.10185146 0.0048288438 0.050975483 0.07866977 -0.045941513
0.40312728 0.057540894 0.09950124 0.23627454 0.0650422 -0.013556584 0.04541102 0.025513757
0.09149858 -0.07491247 -0.008309261 -0.039430216 0.04799746 -0.0016553744 0.9673637 0.101969205
0.078555316 0.19031718 -0.105640106 -0.062043443 -0.02334159 0.0030128402 0.04974567 0.27520403
-0.023833355 -0.06551122 0.1585939 0.026883043 0.2574206 -0.008406202 1.4596138 0.081098415
0.20827131 0.015401958 0.0050451853 -0.01945211 0.124085344 0.08577795 0.05747947 0.21089606
-0.023077859 0.28522578 0.5568669 0.10021799 0.12387248 0.0044227466 0.033202495 -0.025907826
-0.05186422 0.018118393 0.05153445 0.2382905 0.059662484 0.21988676 0.090918645 0.01632464
-0.021499662 0.18040295 0.03061707 -0.030244345 0.13244474 0.010563682 -0.051431034 0.29231444
0.048254684 -0.125229 0.34039187 0.12058494 0.006773049 0.16793694 0.1006607 1.0688579

encoder.2.weight f4 [64, 128]
00000000: 4f35 c9bc 2e51 863d 6c68 fc3c b8a6 103d
00000010: a238 6abd 81fe a7bd b154 f4bb cda5 053d
00000020: 3c2c 0cbc 6f81 443d 7846 8dbd 3ab3 f3bb
00000030: 7033 0dbd e457 253c 2cb1 8bbd 08f3 573d
00000040: 39f8 e4bd cf70 9cbd ca30 9cbb 8ddb 15bc
00000050: a6c6 3c3d c665 23bd 4734 36bc 4116 023d
00000060: 404d 77bd 560b f4bb 52cd d6bc 2544 adbd
00000070: 6d01 e9bc 3646 7e3d 2c16 fcbd 78f7 e9bc
00000080: 3789 373d a451 b7bb 9847 4b3c 369b a4bd
00000090: b246 0b3d b1bc e73c 2bab bdbd 01d9 dbbc
000000a0: 4837 0b3c c17c d4bd 0178 4b3d c0f7 e9bc
000000b0: 6a27 c33c da73 c73c f1a5 8f3c 0673 043d
000000c0: b936 1f3d f8e6 86bd eb2d 66bd 7dcb 3cbc
000000d0: 12bf ecbd 8c3f afba a1cd 75bd 6f1b 6abd
000000e0: 0535 8d3c 6612 d3bc eaae e13c ac31 66bc
000000f0: feed 3bbd 7cfa b7bd f605 1dbd 0eae c3bd
00000100: c6b0 e7bd 76a8 03bd fdcd 85bd 6a2e 733d
00000110: 5000 99bd 3a5e 3f3d 52e9 31bc a699 c73d
00000120: 38fc 9abd 37ba 103d 3160 48bc f32c 343d
00000130: 75e8 babc 73e4 95bd 5235 71bd 7ee0 203b
00000140: 3f52 8bbc 9995 a9bd a976 a4bd a5fa e8bd
00000150: 239c 91bc 5e94 873d 1250 9ebd 3acc bcbd
00000160: 8dbe aa3c 61fe 5cbd 0911 2fbd 637b be3c
00000170: 5da4 4cbd db48 eebd 7d66 37bc a32a 3fbd
00000180: 7b8b afbd d449 9cbd c4b1 1b3d 51b5 033d
00000190: e317 24bd 5bb7 803d 0f0a 8fbd 0e37 68bd
000001a0: 9697 5c3c 933f e2bc 8980 2ebd ec38 58bd
000001b0: 924c 9a3d 5a3f 1b3d cc3e f7bd 9f0c 4abd
000001c0: 6570 53bc c44a 393c 4104 b4bb 33f2 09bd
000001d0: 0028 14bd dabb b0bb 7231 b7bc a03e 59bc
000001e0: 6885 f5bd 4bd8 c4bd fbfb 23bd f889 81bd
000001f0: 20c3 1c3d 4f6f f4bd d278 a8bd 5cfa 56bd
00000200: 5c48 52bd ab13 203e 1b86 013e 1dae e93c
00000210: f78d 23bd 11fc 993e ca50 aebd 06b8 193e
00000220: 8e66 3d3a 5269 b73c 7185 4a3d 13b7 243d
00000230: 84a4 fc3c d0af db3d bc83 f13c 25b3 533d
00000240: 33f6 1d3d 7470 f93c b7cf b9bc 71b5 17bd
00000250: 5dc5 f4bd efc8 c13d 645c 8bbd b99d 8ebd
00000260: b756 9cbc f0d7 d8bd fb63 e93d cadd a9bd
00000270: 5c42 0d3c 373b cd3a 7607 593d 49b7 cd3d
00000280: 53b2 18bd bd0e ab3d fa14 db3d 4916 be3d
00000290: 37c0 09bd 7f04 0d3d 3377 bdbc a934 8d3d
000002a0: 34e6 123d bd7c 1cbd 0294 b13d 20d1 943d
000002b0: e786 cbbb 08b3 ec3d 684c 21bd 6e59 f1bb
000002c0: ea3f 3e3e 97e5 d6bb 98cc af3b 4c90 8d3d
000002d0: 6263 b2bd 4615 0abd c96a 813a 5336 dcbd
000002e0: 0e70 b3bc 95a3 8f3d 7735 393c d047 083e
000002f0: 96be 99bd e262 aebd 4226 2f3d 4016 0c3d
00000300: c931 f23c de89 3e3c 57f8 7ebd c3f2 85bd
00000310: 6eb2 803d 734c 22bc 422c c4bd 5bec 3f3d
00000320: d266 923c 5490 96bd 6bec f13c d463 483d
00000330: 098b 983d 92cb 8e3c c08d 91bc 3b07 2c3c
00000340: 3cec 83bd c939 893b be59 f23c b57a 973c
00000350: 8348 55bd 8f1f b33d 3ac8 5cbe 2f30 fabd
00000360: 8e9c fc3c 783b c43d 41ff 2abe 16a7 763a
00000370: 94e8 963d 8d70 5bbd 4883 5d3d b00d 903d
00000380: a70c a63d bd80 92bc 422f d83d 4f81 423c
00000390: c733 d1bb f264 553c 1b11 3cbc 0f1c b03d
000003a0: 3e5b 97bd 652b 30bd 3c74 f8bc 9fcb fd3c
000003b0: 6414 04be 4ed1 e53d 81b7 243d 806d b93d
000003c0: 99ee 4b3d 845d 853d fefc 23bd 192e b43b
000003d0: 4718 13bd f545 a13c 382a 593d 0578 4cbd
000003e0: 3686 25bd 6273 483d 6a41 bf3b 9913 4b3d
000003f0: f3e2 cd3d 342e 723e 91bf dcbd 7896 533e
-0.024561552 0.065584525 0.030811511 0.035315245 -0.057182916 -0.0820284 -0.007456385 0.032628823
-0.008555468 0.047975 -0.068982065 -0.007437137 -0.034472883 0.010091756 -0.06820902 0.052722007
-0.11180157 -0.07638704 -0.0047665583 -0.009146583 0.046087883 -0.03989198 -0.011120862 0.031759504
-0.060376406 -0.0074476404 -0.026220951 -0.08460263 -0.028443063 0.062078677 -0.123089164 -0.028560385
0.044808593 -0.005594449 0.012407206 -0.08037417 0.034002967 0.028288217 -0.09261163 -0.026836874
0.008497067 -0.103753574 0.04967499 -0.02856052 0.023822505 0.024347235 0.017535182 0.032336257
0.038870547 -0.065870225 -0.056196135 -0.011523125 -0.11559881 -0.0013370379 -0.060010556 -0.05715507
0.017237196 -0.025765609 0.027549226 -0.014049929 -0.045881264 -0.08983323 -0.038335763 -0.09554683
-0.11313014 -0.03214308 -0.0653343 0.059370436 -0.07470763 0.04672072 -0.010858851 0.09746103
-0.07567638 0.03533384 -0.012229965 0.04398818 -0.022815922 -0.07318964 -0.05888874 0.002454787
-0.017006991 -0.082804866 -0.08030445 -0.11375932 -0.017774647 0.06620096 -0.07730116 -0.092186406
0.020842815 -0.053953532 -0.042740855 0.023252195 -0.049961437 -0.1163499 -0.011193869 -0.04667152
-0.08571526 -0.07631269 0.038011327 0.03215534 -0.040061843 0.06284972 -0.069843404 -0.05669313
0.013463875 -0.027618205 -0.04260305 -0.05278866 0.07534136 0.037902214 -0.120725244 -0.049328443
-0.012905215 0.011309329 -0.005493671 -0.033678245 -0.03617096 -0.0053934874 -0.022362445 -0.01325956
-0.11988336 -0.09611567 -0.04003523 -0.063251436 0.038272023 -0.11935293 -0.0822617 -0.052484855
-0.05133854 0.15632503 0.12648813 0.028525406 -0.03993031 0.30075124 -0.08511503 0.15011606
0.00072250597 0.022389088 0.049443666 0.040213656 0.030840166 0.10726893 0.029481761 0.051684517
0.038564872 0.03044913 -0.022682054 -0.03703827 -0.119517066 0.09462153 -0.068047315 -0.06963677
-0.019084318 -0.10588062 0.11396023 -0.08294256 0.008621778 0.0015657906 0.05298563 0.100447245
-0.03727944 0.083524205 0.1069736 0.09281594 -0.033630576 0.034428116 -0.023128128 0.0689481
0.03586407 -0.038204897 0.086708084 0.0726645 -0.00621115 0.11557585 -0.039379507 -0.007365397
0.18579069 -0.006558131 0.0053649656 0.06912288 -0.08710362 -0.033711694 0.0009873743 -0.10752549
-0.021904018 0.07013623 0.011304251 0.13308644 -0.075070545 -0.08514954 0.042761095 0.034200907
0.029564755 0.01162955 -0.062248554 -0.06540444 0.06284033 -0.009905922 -0.09578754 0.046856266
0.017871294 -0.07351747 0.029531678 0.04892333 0.07448394 0.017431054 -0.017767787 0.010499771
-0.064415425 0.0041877967 0.029583808 0.018491128 -0.052071106 0.08746254 -0.21560755 -0.122162215
0.03083637 0.09581655 -0.16698934 0.0009409053 0.073685795 -0.053574134 0.054080278 0.07033861
0.08107882 -0.017883653 0.10555889 0.01187165 -0.006384346 0.0130245555 -0.011478688 0.08599102
-0.0739045 -0.043010134 -0.030328862 0.030980883 -0.12898403 0.11221562 0.040214065 0.090540886
0.04978809 0.06511977 -0.040036194 0.0054986593 -0.035911825 0.019686678 0.05301878 -0.049919147
-0.040411197 0.048938163 0.0058366554 0.049579237 0.10053053 0.23650438 -0.10778726 0.20662868

encoder.2.bias f4 [64]
00000000: 416f b63c 8813 3bbd 8a00 0e3e 453e 3fbe
00000010: a85c 95bd 59b8 d1bd 045e ca39 42b6 853d
00000020: 2385 f5ba 7ed4 013e c626 debd ff92 533d
00000030: e5c7 973d 961d 113c f439 ac3c 2cf2 9fbb
00000040: 76a0 c13d a248 5d3c 5cff adbd a679 573e
00000050: c89e 773d 2015 f73d 1a9f d13c 7058 2bbd
00000060: 9955 c1bd 756e 2e3d 5873 9f3c f361 8dbd
00000070: 4da5 f63b 2b9b 0c3d 5673 503d 6e59 adbc
00000080: 4cbb 253e 301d f3bc 7278 b63d 4745 1cbd
00000090: bc49 64bc 4095 863d e705 a73d 9c20 be3d
000000a0: b96b 01bd 0dc3 ce3d 8b55 d1bd 9250 92bc
000000b0: 1408 21bd 45b7 153e 484e 6bbd 275b 3f3e
000000c0: 80da 403d 255a 613d 1ce9 b73d 48da 37bd
000000d0: 8885 ab3d 8b4d 36be d7a7 f2bd f362 033e
000000e0: f092 7d3d 6cc9 223d 11ad 133e 49b0 893d
000000f0: 87d3 4c3e 78b7 62bd 1700 973d 7745 82bd
0.022269847 -0.045672923 0.13867393 -0.18676098 -0.072930634 -0.1024024 0.0003859849 0.065289035
-0.0018731694 0.12678716 -0.10847239 0.05165386 0.07411174 0.0088571515 0.021023728 -0.004881164
0.094544336 0.013506087 -0.084959716 0.21042499 0.06045416 0.12064576 0.02558856 -0.041832387
-0.094401546 0.04258581 0.01946418 -0.06903448 0.0075270296 0.034327667 0.050891243 -0.021160807
0.1618473 -0.029677004 0.08909692 -0.038152006 -0.013933595 0.06571436 0.08155423 0.092835635
-0.031596873 0.10095797 -0.10221394 -0.017860685 -0.039314345 0.14620693 -0.0574477 0.18687116
0.047083378 0.05501761 0.08980009 -0.044885904 0.083750784 -0.17803018 -0.11848419 0.12830715
0.06190771 0.039742872 0.14421488 0.06723077 0.20002566 -0.05535075 0.07373064 -0.063609056

encoder.4.weight f4 [16, 64]
00000000: 8182 ff3d a69e 11be afac e4bd 660d e4bd
00000010: 40ab 983d c858 7b3d 0fe8 793d 714e b3bd
00000020: e7b8 b23d adb7 d3bc 4518 063d 8a1e 08be
00000030: b59c b8bb e300 913b 2e13 b13c 3653 e93c
00000040: e61d a43d 3f81 47bd af6b b13d c263 903d
00000050: 2dc0 233d e05d 2fbe d7da 1fbd 66b3 663d
00000060: 240a bfbd ee81 afbd 4a1e 1dbc f916 5b3d
00000070: 884b 823d 6cae 1abd 25b6 e03d b5de 893d
00000080: 255c 18bd 2015 4abd 74f6 18be d7ec 573d
00000090: 808a a0bd b71b 143d 42fd 8fbd 0a27 983d
000000a0: a5b4 ff3c d538 c4bb 8e59 4bbb 49ab 91bc
000000b0: 778f bf3d 4932 d7bd b4dd cc3d 1f79 593d
000000c0: 1b89 f13d b710 47bc 3ffe 45bc dbfd 13bd
000000d0: 986e a0bd c17e b83d 1082 6e3d a82a 09bd
000000e0: 6479 fdbd 9041 22bd 36a7 22bd 8b39 853d
000000f0: 359a a93d bb8d a5ba 0606 c9bc f9d4 cbbc
00000100: c2d6 203e b9ac 39bd edac 253c 9bf8 1cbe
00000110: 861f 0dbe dddb 05bb 1296 9ebd 8f63 c23d
00000120: b22b ea3d ef94 f93d 3c50 2d3c 42d8 44bc
00000130: 51ea 443e 3bb5 3dbd c0fc c3bc f6d9 c8bd
00000140: 6bf7 d13d 6da6 b9bd 6214 c43c 5120 b43d
00000150: 1c42 1abd 0f75 883d 6981 8dbb ac0d c03a
00000160: d951 f7bd 8042 db3c 444e 78bc d609 6dbd
00000170: f3ce 8dbc 07e8 d53d 4a05 07be c945 cd3c
00000180: e1f6 aaba b54f d4bd c25f 1e3d e137 4fbd
00000190: d424 073d 62ff ba3d 14c1 49bd 5a60 ef3d
000001a0: db8f 60bc d98a 2cbd a382 2f3d 1095 683d
000001b0: 011d f73d d977 c63d 0d08 9abd 5ce9 123e
000001c0: f0cb 723c e46d bfbd 92c9 693d f375 623d
000001d0: a246 a53c 7bbf 19bc 4668 a0bd d099 d83d
000001e0: 264c f3bd a4b2 023d e2ea e23d 74df d23d
000001f0: e3d9 a63d eb5d 8abd 3689 853c cf0f 4f3d
00000200: 5c0a 153c da0e 523d 69ec e9bd f4ea a43d
00000210: efed 0cbe 5031 883d 657d d63d 421b ca3c
00000220: 3b8c d1bd ae21 8abc 767d 0a3d 01de e43d
00000230: 20f2 893d 6033 87bc 2276 3ebc 90a7 4dbd
00000240: fe08 843c e5f5 1fbd cf9f 533d 8562 09bd
00000250: 990c 2a3d 3e26 75bc 3005 92bd e0b8 b93d
00000260: 34f8 95bd ad18 b43c 1083 c23b 4ce0 753c
00000270: 290f bebd 3fd0 e2bc 706f f63d 6cde e9bd
00000280: 9a0e 0c3e 42ed f33d 5a53 febd 68c3 debd
00000290: 7e62 7f3d 6b52 de3d ae67 c9bd 62fd bd3d
000002a0: 7624 13bd 2edb 1ebb b7ce 273d 9ad3 22bd
000002b0: 1481 883d cf7a 83bd 03cc cd3d a2dc 063d
000002c0: a250 a73d 06a4 b93d cf9b 1d3d 2c04 bdbd
000002d0: eb4f cb3c 059c 6dbd b902 b4bd bf0f 1e3e
000002e0: 63b9 a93d f629 3b3b 254b 023e 3030 783d
000002f0: 0482 e43d 7e09 9fbd dff9 293d e2dd 0a3e
00000300: a0e6 24bd f7ff e93d 2af8 9ebd 14b8 903d
00000310: 56ab 393c f91e 2dbd 5a18 64bb 7485 943d
00000320: 3b3b 68bd 684c 84bd fd90 d83c 3798 4ab9
00000330: 8c4b 3a3c 2003 fbbd 5a9b 3cbd 0ee5 05bd
00000340: 12fd 3b3e 5b17 673b d38d bb3c 0ee5 38bd
00000350: 38bc d4bc 9ddc aabd 0fbd 203d 324d 4dbc
00000360: 750a fd3c 1e7b b23d bd5c 9b3d 9132 9b3d
00000370: 304d db3d e1b8 dbbc 0e86 0c3e e9c2 9b3d
00000380: 24bb 04bd 7f4c 88bd 8388 ea3d f2cf 273e
00000390: 4ad7 ae3d 8abd e33d 700e a8bd 8a23 afbd
000003a0: cbb9 6abd 24a3 a4bb 857e a93d 112e 693c
000003b0: bc13 7cbd 42aa 21bb d8d3 9e3d 2d4d bdbc
000003c0: a64d 0cbe 3d4e 8e3d 023c cf3d b7ae bc3d
000003d0: 2545 c4bd f005 5d3d 7c9f 4dbd 49e8 393c
000003e0: 7fb4 3fbd 54da a8bd 7676 493d 7eee b7bd
000003f0: da8a ecbd 927e 943d 50d6 a33d 58a6 b13b
0.124760635 -0.14220676 -0.11165749 -0.11135368 0.07454538 0.061363965 0.061012324 -0.08755196
0.087266736 -0.02584442 0.03273799 -0.132929 -0.0056339153 0.0044251545 0.02161559 0.02848206
0.08013515 -0.048707243 0.08663117 0.07050277 0.039978195 -0.17125654 -0.03902706 0.05632343
-0.09328106 -0.08569704 -0.009589741 0.053488705 0.06362063 -0.037763998 0.10972241 0.06731931
-0.03719725 -0.049336553 -0.14937764 0.052716102 -0.07838917 0.036159243 -0.07030727 0.07429321
0.031214068 -0.00598822 -0.003102872 -0.01778187 0.093535356 -0.10507638 0.10003224 0.053094026
0.11793729 -0.012149981 -0.012084543 -0.036130767 -0.07833594 0.090085514 0.058229506 -0.033487946
-0.12376669 -0.039613307 -0.039710246 0.06505116 0.08281366 -0.001263074 -0.024539005 -0.024881827
0.15706924 -0.045330737 0.0101120295 -0.1532921 -0.13781556 -0.0020425238 -0.077434674 0.094916455
0.114341155 0.1218661 0.010578211 -0.0120144505 0.1923001 -0.046315413 -0.023924232 -0.09807198
0.10252269 -0.09064946 0.0239355 0.08795226 -0.037660703 0.06662952 -0.0043184054 0.0014652512
-0.12076158 0.026765108 -0.015155379 -0.05787071 -0.017310595 0.10444646 -0.13185611 0.02505769
-0.0013043546 -0.103667654 0.03866554 -0.0505904 0.032994106 0.09130742 -0.0492564 0.116882995
-0.013706173 -0.042124603 0.042849194 0.056782782 0.12066079 0.09690828 -0.07521067 0.14346832
0.01481913 -0.09347132 0.057076998 0.055288266 0.020175282 -0.009384031 -0.078323886 0.105762124
-0.118797585 0.031908646 0.110799566 0.102965266 0.08147027 -0.06756195 0.016300779 0.050552186
0.009096708 0.051283695 -0.11422045 0.08052626 -0.1376264 0.066500306 0.10473136 0.0246712
-0.10231825 -0.016861763 0.033811055 0.111751564 0.06735635 -0.01650399 -0.011624845 -0.05020863
0.016117569 -0.039052863 0.051666077 -0.03354122 0.04151592 -0.014962731 -0.07129896 0.09068465
-0.073227316 0.021984423 0.005936034 0.01500709 -0.09280235 -0.02768719 0.12032974 -0.11419377
0.13677445 0.11910488 -0.12418242 -0.108771145 0.06234979 0.10855564 -0.098342285 0.092768446
-0.035923444 -0.0024239528 0.040968623 -0.03975258 0.06665245 -0.06419908 0.10048678 0.032925256
0.08169676 0.09064488 0.03847867 -0.09229311 0.024818381 -0.05801012 -0.08789582 0.15435694
0.08287313 0.0028558946 0.12723978 0.06059283 0.11157611 -0.07765482 0.04149806 0.13561204
-0.040259004 0.114257745 -0.07762177 0.0706636 0.011332354 -0.042265866 -0.0034804554 0.07252017
-0.05669711 -0.06459886 0.026436323 -0.00019320926 0.011370551 -0.122564554 -0.046046592 -0.032689147
0.18358257 0.0035261724 0.022894775 -0.04514032 -0.025968656 -0.0834286 0.0392428 -0.012530612
0.030888775 0.08714889 0.07586048 0.07578004 0.10708082 -0.026821556 0.13723013 0.076055355
-0.032405034 -0.066552155 0.11451819 0.16387919 0.08537157 0.11120136 -0.08205879 -0.085517004
-0.057306092 -0.0050243307 0.08276085 0.0142321745 -0.061542258 -0.0024668132 0.0775525 -0.02310809
-0.13701496 0.069485165 0.101188675 0.09213012 -0.09583501 0.05396074 -0.050200924 0.011346885
-0.046802994 -0.08244768 0.04918524 -0.08981036 -0.11549921 0.07250704 0.07999861 0.005421441

encoder.4.bias f4 [16]
00000000: 9d17 ecbb 0c12 c93d a0bd 343c 42f2 6e3d
00000010: dfa6 6ebd a8c5 7c3d db61 8a3c 3194 a73b
00000020: 46c7 2b3b 1d67 ca3c 938f 7d3d 23c4 e73d
00000030: 73d8 cc3d 2cf0 de3d 7d38 a0bd 4600 b1ba
-0.0072049634 0.09817895 0.011031538 0.058336504 -0.05826461 0.061711937 0.016892364 0.0051141013
0.0026211306 0.024707371 0.0619045 0.11316707 0.10002222 0.10885653 -0.07823274 -0.001350411

decoder.0.weight f4 [64, 16]
00000000: 4565 6cbd 59cc 8abd ed3d f3bd 026f 34be
00000010: d70a 4a3e c31d 7c3d 8e63 a5bc c96f 813e
00000020: fc83 5dbd 71c3 333e 4c56 fc3d 1fd6 02be
00000030: 03c6 33be f6c1 1e3e b68e 65be 29f5 58bd
00000040: 9007 25bd e608 c33d 6705 bd3d d149 943e
00000050: fecc 763e 63ce 463e 85fb bc3c 329b 233c
00000060: 6fc3 043e ba66 4a3d 8328 8c3d 75e0 993d
00000070: 72ad 8b3b 8b96 71be 87f1 0dbe 6b4c 833e
00000080: cb56 69bd 0cf8 37be 7e61 91bc ef04 f63c
00000090: 0323 333d 8a92 403d 630e 2fbe 9d32 89bd
000000a0: 5038 1b3e 0ccb 33be 05eb 303e 33c9 5bbe
000000b0: 7d61 a2bd 2e58 6cbc cbfc 28bb 5d9a a33c
000000c0: a1c3 2e3d 67b2 f1bd 8110 73bd d0a1 adbb
000000d0: f6aa 4dbe 90c1 ecbc 5cb9 22bd 628b 0c3e
000000e0: a981 ecbd 8fd5 bfbd 673f 9bbd 9f22 b53d
000000f0: b81e d6bd dd35 dfbd 3f3d 4c3d d57f 34bd
00000100: 80e1 63be 379c 943e 0768 743e f9b2 723e
00000110: 0e46 8bbe 4eec a2bd f338 37be db1a 17be
00000120: 352f 2fbe fb02 4abe 319f 783c 66a7 07bc
00000130: ec74 57be 273b 3e3e 02da c5bd c582 543e
00000140: de9c 1cbe 86d5 dcbd 4810 543e 29b4 6d3e
00000150: 1af2 a13d 6d2e e13d d41b 8c3e 496e ce3d
00000160: 7b4f 58be f482 2d3e 9aa8 183d 9754 003e
00000170: e60d 4abe bd9b 58bd 7219 27be 8094 063e
00000180: 6e04 90be 2597 e3bd ba73 55be d5da a13d
00000190: b438 0f3c df9f c7bd 45d9 b6bd 6cb7 413e
000001a0: 6b59 823d 7c75 12be ab60 29be 3e06 4e3e
000001b0: fc52 c53d 9d97 47be a22c 403e c02c 913d
000001c0: 3aba ae3b abc9 943d 371a 8f3d b9e1 08be
000001d0: 6951 a93d d14d 89bd 0234 41bd 7d79 05be
000001e0: 5a6f b73d 9acd 27be 03e4 15be 160f 843d
000001f0: 42b5 353e 10cf c83d bfb3 8c3e 4d86 1bbe
00000200: 5d24 243e 9845 563d 74bc 2fbe 6052 793e
00000210: e7ba 3fbe d90e 073e ea87 e1bc 3433 ce3d
00000220: ae73 86be 84d5 7c3e af4f c13d 775e d4bc
00000230: c630 1dbe d465 f13d 2048 0ebe 59df b93d
00000240: 0386 a9bd 26a5 9dbe 7357 3a3e fd72 053e
00000250: 368c 37be 661b c3bc a020 8cbe 9e2a db3d
00000260: 8ea5 45be 0c73 ed3c 0031 803e e9e0 b03c
00000270: 5c38 793e 2c49 1b3e aa0e 26bb 50c5 f9bc
00000280: 5ce3 583d 8c67 febd 4324 64be bd2a dbba
00000290: c984 5a3e 9999 9cbd 527f 06be 0e86 f5bd
000002a0: 3d87 1ebe 830f 0abe 2784 95bd 4a5c 12be
000002b0: 9b1c 13bb 0539 18bd 3b80 a83c 1ca8 61be
000002c0: a68a 593d 47c9 2cbe 34c1 bf3d ebc2 1bbe
000002d0: d2a7 66bd f0a4 12be 449a 703d 00e3 c83d
000002e0: e7a1 5abe 4a31 e0bd c689 18bd d45e b23c
000002f0: 153f 6ebe 8386 c6bd b6d8 aabd 2a7d 50bd
00000300: a40d a03d 1879 5bbc a1cf 6b3e 67d2 e0bd
00000310: d81a 513e cd83 45be 5956 dcbc 3e8a e73d
00000320: 6740 31be 6be8 4d3e 5fca be3d 948a 323e
00000330: 184b d4bc 440e 8e3e 67b4 3b3d efd1 59bd
00000340: 4445 47be 12ce d7bd 79c7 0bbe 4ce4 45be
00000350: 621a 70be 2351 77be 4afd 7c3e ccae 0bbc
00000360: 5151 d43c 0b70 0b3e 00c1 aa3d 8149 60be
00000370: 1cc3 b8bd fbf9 0ebe b69b 17be a06d 923d
00000380: 7767 27be c564 713e c6ce d33c 3a39 40be
00000390: df42 bdbd 97e4 ddbd faa9 3dbe 2c51 003e
000003a0: e466 563d 38b5 cfbd 8071 a63d 82cb 63be
000003b0: d50e 3fbd 84b3 883b 1407 363d 10fb 0d3e
000003c0: 01f5 d13d 5afd b43b 0c3f 37be 3a8e 913d
000003d0: b59f 783d edc8 41be fe91 173e 086b 003e
000003e0: 99b9 b6bd 26a5 7bbd da9f 07bd e997 6bbe
000003f0: 71ea b4bd e90a 81bd b499 403e 9a8e 423a
-0.057713766 -0.067772575 -0.11877046 -0.17620471 0.19730698 0.06155182 -0.020189073 0.25280598
-0.05408095 0.17555024 0.12321147 -0.12776993 -0.17556004 0.15503678 -0.22417721 -0.052968178
-0.040290415 0.095231816 0.09229546 0.28962567 0.24101636 0.19414668 0.023069153 0.009985732
0.12965177 0.049414374 0.068436645 0.07513515 0.0042626197 -0.23592584 -0.13861667 0.2564424
-0.056967538 -0.17965716 -0.017746683 0.03003165 0.04373456 0.04701475 -0.17095332 -0.06699107
0.151582 -0.17557925 0.17277153 -0.2146347 -0.07928751 -0.014425321 -0.0025785442 0.019971067
0.042667035 -0.11801606 -0.05934191 -0.0052988306 -0.20084748 -0.028900892 -0.039727554 0.13725045
-0.11548168 -0.09366905 -0.075804524 0.08844494 -0.10455078 -0.108989455 0.049863096 -0.044067223
-0.2225399 0.29025432 0.23867808 0.23701085 -0.27201885 -0.07955228 -0.17892818 -0.14756338
-0.17107852 -0.197277 0.015174673 -0.008279657 -0.21040696 0.18577252 -0.09660722 0.2075301
-0.15294215 -0.10782914 0.20709336 0.23213257 0.07907505 0.10995183 0.2736498 0.10079629
-0.2112407 0.16944486 0.037270166 0.12532268 -0.19731864 -0.0528829 -0.163183 0.13142586
-0.2812838 -0.11112813 -0.20844927 0.07903067 0.008741546 -0.0974729 -0.089281596 0.18917626
0.063647114 -0.14302629 -0.16540782 0.20119569 0.09634969 -0.1949143 0.18767026 0.070886135
0.0053322585 0.072650276 0.06987422 -0.13367356 0.08267481 -0.067042954 -0.04716874 -0.13034625
0.089567855 -0.16387025 -0.14637761 0.0644819 0.17744926 0.09805119 0.27480885 -0.1518795
0.16029496 0.052312464 -0.17161733 0.2434783 -0.18723641 0.13189258 -0.02753063 0.1006836
-0.26260132 0.24690825 0.094390266 -0.02592395 -0.15350637 0.11787 -0.13894701 0.09075803
-0.08277514 -0.3079006 0.18197422 0.13032146 -0.1792458 -0.023816776 -0.2736864 0.10701488
-0.19301435 0.028985523 0.25037384 0.02159162 0.24337906 0.15164632 -0.002533833 -0.030489594
0.0529512 -0.12422094 -0.22279458 -0.0016721111 0.21339716 -0.07646484 -0.13134506 -0.119884595
-0.15481277 -0.1348248 -0.07300597 -0.14293018 -0.002244747 -0.037163753 0.020568958 -0.22036785
0.05311074 -0.16873656 0.093630224 -0.15211074 -0.05631239 -0.14320731 0.05874087 0.09808922
-0.21350823 -0.10946901 -0.037240766 0.021773733 -0.23266251 -0.09693625 -0.083421156 -0.050900616
0.07815102 -0.01339557 0.23028423 -0.10977631 0.20420396 -0.1928856 -0.026896643 0.113056645
-0.17309724 0.20108192 0.09315943 0.17435676 -0.025914714 0.2774526 0.045826342 -0.053178724
-0.19460016 -0.10537352 -0.13650312 -0.1932537 -0.23447564 -0.24152045 0.24705997 -0.008525562
0.025917681 0.1361696 0.08337593 -0.2190304 -0.09021589 -0.13962547 -0.14805493 0.071498156
-0.16348062 0.23573597 0.025855433 -0.1877183 -0.0924127 -0.10834616 -0.18521872 0.12530965
0.052344218 -0.101419866 0.08127117 -0.22245601 -0.046645004 0.0041717906 0.044440344 0.13865304
0.10251809 0.005523366 -0.17895144 0.07107206 0.060699183 -0.18924303 0.14801785 0.12540829
-0.08922119 -0.061436795 -0.03311143 -0.23007168 -0.08833779 -0.06300909 0.18808633 0.0007421762

decoder.0.bias f4 [64]
00000000: f27b 88bb adcd 1dbd 1e9d 0a3e 0beb b9bd
00000010: f00c 97bd 4ddc 32bd 5e0a 683e 48cd dc3e
00000020: 1767 103f d551 9a3c d5b5 3bbd 35f3 983e
00000030: d6d5 723e 9eca 3a3e 774f e63d fd12 12be
00000040: 7586 fb3e 7580 2dbd b0b4 2d3e 2645 2b3e
00000050: 4476 7dbc 0b3f 003f f0d7 4bbd d63d 193d
00000060: 15e0 263e ded1 c7bb 0989 3a3d 3880 a63e
00000070: 4155 30be 90f5 973e 7227 e63d 418d cc3e
00000080: 9a2c 3c3e 970e a9bd ddc0 3f3d 1640 f7bd
00000090: 5691 06be 8134 2ebe 8193 9dbd 7039 2f3e
000000a0: 8a86 2b3f f54b 0f3e 2eb1 103d 3478 4bbd
000000b0: 91be bb3d 255c 683e 93b2 783e 31fa 23be
000000c0: 11e9 373d 4231 c1bd eeeb 4c3e 359f 96bd
000000d0: f6d6 5c3e 3803 f73e aa9a 3bbe ba7a b3bd
000000e0: e6fc 1cbe e5cb 993d fb2b 6c3e 043f 333e
000000f0: 1a8d 213e 4218 4d3e ba25 03be ce55 7c3c
-0.004165166 -0.038526226 0.13536498 -0.09078034 -0.073755145 -0.043667126 0.22660205 0.43125367
0.564073 0.018837849 -0.045827705 0.29873052 0.23714384 0.18241355 0.112456255 -0.14265056
0.4912602 -0.042358834 0.16963458 0.16725597 -0.015470091 0.50096196 -0.04976648 0.037412487
0.16296418 -0.006098016 0.045540843 0.32519698 -0.17220022 0.29679537 0.11237992 0.39951518
0.18376389 -0.08254736 0.046814788 -0.1207277 -0.13141379 -0.17012216 -0.0769415 0.17111754
0.67002165 0.13993819 0.03532522 -0.04967518 0.09167207 0.226914 0.2428687 -0.16013409
0.044900004 -0.09433223 0.20011875 -0.07354585 0.21566376 0.48244643 -0.18320718 -0.087636426
-0.15330848 0.07509593 0.23063652 0.17504507 0.15776482 0.20028785 -0.1280736 0.015401317

decoder.2.weight f4 [128, 64]
00000000: d876 e23c fb25 013e 6773 043e c983 9dbc
00000010: 0d5d adbd 1982 ecbd 989e 9a3d 4ec8 083e
00000020: add5 64bd 8fb8 46bd becc abbd e84b 9b3d
00000030: 032b 7bbd 22d9 0c3c 0801 073d 5eb4 9dbd
00000040: f721 a5bc 3f02 05bc d318 b23d fdcb 9e3b
00000050: 44cb abbb 643a 18be 8b7f d83d 2cb2 123d
00000060: d1a6 20be 8207 8d3d 45af 39be edb8 afbd
00000070: 670c a6bd 9495 97bd 5d4c 033e 105c a739
00000080: c800 8d3d 6a4d c23d f98c 173c 6a39 d63d
00000090: 1537 13bd bda2 d2bd fd5c 8cbc 4536 6fbd
000000a0: 93b9 8d3d 4423 d53c 3d39 ddbd 3b36 7cbd
000000b0: 95cb 7abd 0b12 bd3c 9eb3 fa3d 93cf e93d
000000c0: 36b6 a63d 12f0 05bc d563 ca3d 6c90 5e3d
000000d0: 264d 8fbc eaf4 58bd 4aad 3fbd 5756 123d
000000e0: 3c1e 4a3d a493 b63d a0c9 7a3d 0950 483d
000000f0: 36be 9e3e 8ea1 afbd 4adc a3bc 9d8f eebd
00000100: fd23 c6bc 0155 01bd ba85 9a3d fb2c c23d
00000110: 2f55 ed3d cc71 473b 12ed f13d 4b81 bc3b
00000120: b400 b73d b6de f5bd 1f30 043d 1254 313c
00000130: 98f5 c33c a8ad 563d d9af 093c e105 7cbc
00000140: bc1a 9c3e d6b5 dfbd 7358 15be b6ed 733b
00000150: 9f57 adbc 41f8 09be 5caf 14be 3631 0dbe
00000160: 8091 9e3d 3671 1a3d aeee 5fbd e41f 973d
00000170: ed12 dbbd e391 6ebc d3a4 cf3c a935 c23e
00000180: b50d cf3d a3dd 803d a022 94bd af56 083d
00000190: 4c9b d3bd 73ad a43d fbde 96bd 081c 06bd
000001a0: e3ec f03d 8df6 57bc 243a 063e b7a3 81bc
000001b0: ffce 313e d3af 83bc 3cbc 093d 8cb1 8c3d
000001c0: 0825 efbd 1053 ff3c bb47 3d3d 4dbc 06bd
000001d0: 49f4 0c3e cd0a 083e 9ca2 fcbd 6e7a f2bc
000001e0: c7da 303d cec1 183e a6ed 583d e932 133d
000001f0: 1a91 c1bd 77f9 a8bd 5ace a8bb 71a2 19be
00000200: 4831 79bd 0138 5cbd 1139 d4bd cead bcbd
00000210: 8734 9cbd ebce 003e 08a4 8c3d 7eab 213d
00000220: 6ff6 9d3d 5236 223d 5d90 c4bd 27ec e33d
00000230: 8742 413d 7007 033e f285 40bd 72bd d03c
00000240: e252 c9bd 72fb 423d 576c 90bd d1f0 163d
00000250: dbd7 b63d 50dc db3d ebeb 4abd 5841 e03d
00000260: 99fd bfbd a4f2 8bbc 1d89 7e3d ef30 103d
00000270: b3ec 55bb 78c1 43bd 8338 d83d 88bf cabc
00000280: b1d8 3fbd fd0f c83d 0801 c2bc 2a12 b8bd
00000290: 94c2 2fbd 9404 c33d 967b ec3c cee8 f43c
000002a0: b015 233d c635 6b3d fa04 8d3c 5e0f 073e
000002b0: 9680 ce3d e915 eaba 5241 083e d173 b1bd
000002c0: 359d 4a3d f547 003d 6bfa a53c 31a8 86bd
000002d0: c10c 4cbc 952d dc3d d4a2 9dbc acdc eb3d
000002e0: cf00 b33d a322 2abd b9ad d03c 417d a43d
000002f0: e2a5 b7bd bcf1 99bb cdcb 2a3d ef86 6bbd
00000300: bec3 3b3d 855d e63c e7f9 51bd b3c3 66bd
00000310: 34c5 0e3c 0e74 f9bc ce09 1c3d b066 f43c
00000320: a081 e63d 9149 183e d460 19be d411 a13b
00000330: 9dbd aabd a357 a1bd 376c b5bc 5d71 8abc
00000340: f4a2 bdbd af68 833d 3f86 f23c a3a1 d53c
00000350: cd44 e93c 42af 36bc db7d a1bd 3d78 09bc
00000360: dcda 283d 663b aabd 7d87 e3bc e21a c2bc
00000370: 2f27 9a3d c8e9 d23c f071 803c ee3f 09be
00000380: bf89 7bbd b1bc b5bd 1fcc febc 757c 15bc
00000390: df26 1d3e 3302 d93d 0655 d7bd eba6 ec3c
000003a0: c4e5 373d f12c 42bc e11a 773d 8681 4bbd
000003b0: b8e2 adbd 5d29 9a3d 3ae0 b7bd ee70 043e
000003c0: 3aa5 01bd ba3e c03d 0aef 333d 0cfe cbbc
000003d0: 6706 a03d 5eb0 df3c a2db 10bd 6a05 79be
000003e0: b8ae 093e 5431 56bd eb0f f23c f0ee 723c
000003f0: 5b5c efbd aa59 64bc 1c45 46bd b98a 863d
0.02764456 0.12612145 0.12934648 -0.01922788 -0.08465014 -0.11548252 0.075497806 0.1335766
-0.05586784 -0.048515853 -0.08388661 0.07582837 -0.061320316 0.00859669 0.032959968 -0.07700418
-0.020157797 -0.008118211 0.08696141 0.0048460946 -0.005242737 -0.14866024 0.10571202 0.03581445
-0.15688635 0.068861976 -0.18133266 -0.08580194 -0.08107834 -0.07401577 0.12822099 0.00031921314
0.06884915 0.09487422 0.009249919 0.104601696 -0.035941202 -0.10284946 -0.017134184 -0.058401365
0.06920161 0.026017793 -0.10801933 -0.061575156 -0.061229307 0.023079893 0.122412905 0.11416545
0.08140223 -0.008174913 0.09882323 0.05433695 -0.017492842 -0.052967943 -0.04679612 0.03572687
0.04934524 0.08914879 0.06122744 0.048904452 0.31004494 -0.08575736 -0.020002503 -0.11648486
-0.024187082 -0.031575207 0.075450376 0.094812356 0.11588513 0.0030432818 0.11812796 0.0057527176
0.08935681 -0.12005369 0.032272454 0.010823267 0.02392082 0.052411705 0.008403742 -0.015382261
0.30489147 -0.10923354 -0.14584522 0.0037220544 -0.021159945 -0.13473608 -0.1452002 -0.13788304
0.07742596 0.037705623 -0.054670982 0.073791295 -0.10696969 -0.014561149 0.025347149 0.37931564
0.10110036 0.06292274 -0.07233167 0.033285793 -0.10332355 0.08040895 -0.07366749 -0.032741576
0.117639326 -0.013181341 0.13108116 -0.015825136 0.17364119 -0.01607505 0.03362678 0.06869802
-0.11676985 0.031167537 0.046210986 -0.03289442 0.13765062 0.1328537 -0.12335703 -0.029599395
0.043177392 0.1491768 0.052961014 0.035937224 -0.09451504 -0.08250707 -0.005151552 -0.15003373
-0.060838014 -0.053764347 -0.10362447 -0.09212838 -0.07627206 0.12578933 0.06867224 0.03947019
0.07713019 0.039602585 -0.095978476 0.11129027 0.047182586 0.12795806 -0.04700274 0.02548096
-0.09830262 0.04760308 -0.07051914 0.036850754 0.0892789 0.10735381 -0.049541395 0.10949963
-0.09374542 -0.017083474 0.06214248 0.035202917 -0.0032642304 -0.047791928 0.10557654 -0.024749532
-0.046837512 0.097686745 -0.023682132 -0.089878395 -0.042910174 0.095223576 0.028867524 0.029896166
0.039815605 0.05742433 0.017214287 0.13189456 0.100831196 -0.0017859313 0.13306168 -0.08664668
0.04946633 0.031318624 0.02026101 -0.06575049 -0.012454213 0.107508816 -0.019242682 0.11516699
0.087403886 -0.04153694 0.025473462 0.08031703 -0.089671865 -0.0046980064 0.041698266 -0.05750173
0.04584097 0.028120765 -0.051263716 -0.056338977 0.008714009 -0.030450847 0.038095288 0.029834121
0.11255193 0.14871813 -0.14978343 0.0049154554 -0.08336947 -0.078780435 -0.022146327 -0.016899759
-0.092595965 0.06416451 0.02960503 0.026078051 0.02847519 -0.011150183 -0.07885333 -0.008390483
0.041224346 -0.083121106 -0.027774567 -0.02369446 0.07527005 0.025746241 0.01567933 -0.13403293
-0.06141066 -0.08873881 -0.031103192 -0.009123911 0.1534686 0.105961226 -0.10514264 0.028888186
0.044896856 -0.011851535 0.060328368 -0.04968407 -0.08490509 0.07527421 -0.08978315 0.12933704
-0.031651713 0.09386964 0.043929137 -0.024901412 0.07813721 0.027305778 -0.03536571 -0.24318472
0.13445556 -0.052293137 0.029548606 0.014827475 -0.11687537 -0.013937393 -0.04840575 0.06569428

decoder.2.bias f4 [128]
00000000: 4251 1abd 0e35 a83c 9fbc 023c 8a9b 613d
00000010: c10d 763d a9e9 883d 8013 4b3e 1cc4 773d
00000020: b89f 563b fc74 e6bd cce7 4abd e3bb 72bd
00000030: 5762 133c af72 dbbd 2b80 fc3d 913b 1e3d
00000040: 10e5 543e 317f 293d ee03 853e a3be 2f3d
00000050: 387c db3d 2046 993c 5a2b 873e fc0f 5a3e
00000060: f4e0 d43d b1f3 093e 64bb 0f3e c7b7 bbbd
00000070: f46b 1e3e 53cf 9fbd a7cc 84bc c195 303d
00000080: fde5 c43e 047c c2bc 7bf1 913d 5e59 f03d
00000090: 0c92 30bd d7f5 e13d d74f 95bc 7b63 4fbd
000000a0: b802 06bd d2fc 5e3e 978a 63bd bd71 8dbd
000000b0: 1fe8 f33d 1193 e5bb d473 03be 2232 103e
000000c0: c9f5 9cbc 2f14 5ebd 5b75 db3b fbbf aabd
000000d0: f723 2fbe 4f42 c3bd 5c0a f0bd e27c 1abc
000000e0: 5f36 a73b 311f 503d 07b9 a4bc e240 9d3d
000000f0: 9cf5 5f3d 027b b83d de7b 07bd a909 8c3d
00000100: 738d c6bd 4f1a a8bd ebd7 5ebd d51a f93d
00000110: 13a5 dabd 43a6 963c 4891 583e 8bd8 c13d
00000120: fe90 c73d 1716 19bd 291e e23d a379 86bd
00000130: f6b6 5fbd be83 83bd 8d7d 37bc 467b 01bb
00000140: a832 fabc 1ba7 8a3d 1b4d 8b3d f774 6b3e
00000150: d705 043e 8b95 423e 6be9 19bd 09d7 acbd
00000160: 6811 bbbc 21d2 70bd bcc6 113d 998f 2cbd
00000170: 647f 2d3d 8c92 273e 0184 9b3d 5697 1f3e
00000180: faaa e6bc a676 9abd ec4e d5bd 6837 2b3e
00000190: 85f0 23bc 72ef 103e 6792 0b3e 1f6f 90bc
000001a0: 9bbd 763d 6e9f d33d 9d05 beba 7362 233e
000001b0: 2cbc f8bb 80c6 b63d ea06 743d 9570 47bc
000001c0: 8257 9a3b e0f7 0bbd b201 fbbc c123 61bd
000001d0: 40a1 b33d 7b62 07be 2c69 023d 8b4d 8d3b
000001e0: 8c75 17bd 943f 1c3e 6b47 81bd 4336 7b3e
000001f0: fc7c 663d b037 d33b e36f 2f3e ee49 b2bd
-0.03767515 0.020533111 0.007979541 0.055079974 0.06007171 0.06685192 0.19831657 0.06048976
0.0032749008 -0.11252782 -0.049537465 -0.059261214 0.008995614 -0.107152335 0.123291336 0.038631026
0.20790505 0.041381065 0.2597956 0.042906415 0.10717052 0.018710196 0.26400262 0.2129516
0.10394469 0.13471867 0.14036328 -0.09165912 0.15470868 -0.07803216 -0.016210867 0.043111566
0.38456717 -0.023740776 0.07126137 0.117357954 -0.04310803 0.11033218 -0.018226547 -0.05063198
-0.032717437 0.21776131 -0.05555209 -0.069064595 0.11909508 -0.007006057 -0.12837154 0.14081624
-0.019160168 -0.054218467 0.0066973395 -0.083373986 -0.17103563 -0.09534132 -0.11720726 -0.009429188
0.005102917 0.050810996 -0.02010776 0.07678391 0.05467759 0.09007837 -0.033077113 0.0683778
-0.09694948 -0.08208143 -0.054405134 0.12163321 -0.10676017 0.018389827 0.2114917 0.094651304
0.09744452 -0.037374582 0.11040909 -0.06566169 -0.054617845 -0.06421612 -0.011199367 -0.0019757315
-0.030541733 0.06770154 0.06801816 0.22993837 0.12892853 0.19002359 -0.03757612 -0.08439452
-0.022835448 -0.058794145 0.03558992 -0.042129133 0.042357817 0.16364497 0.07593537 0.15585074
-0.0281577 -0.07542162 -0.10415444 0.16720355 -0.010006075 0.14153841 0.13630067 -0.017631112
0.060239416 0.10333143 -0.0014497522 0.15955524 -0.007590791 0.089245796 0.059576906 -0.012172838
0.004710139 -0.03417194 -0.030640457 -0.05496574 0.0877099 -0.13221161 0.03183858 0.0043122224
-0.036977336 0.15258628 -0.0631245 0.24532418 0.05627154 0.0064458475 0.17132525 -0.08705507

decoder.4.weight f4 [200, 128]
00000000: 2f43 14bd b695 08bd 5bcc 993d c9a0 10bc
00000010: f1f1 ec3d c1ba cfbd e706 3abe 18ce 70bd
00000020: 5930 323d 41ed 98bd c757 6fbc de4a 303d
00000030: 187e 03be 14ee 6c3d c236 c0bb 6295 843c
00000040: 9885 d73d dab8 0cbd e6ef 123e 40ef dd3c
00000050: 62b5 2fbc af02 69bd b660 a63d b697 0c3e
00000060: dc25 4c3c ecf3 4abd 5703 e63c 239d acbc
00000070: e3f5 463c 5592 883d eb2c a83c bcd9 be3d
00000080: b916 8ebc fbb0 08be 0cc6 27bb e257 10bd
00000090: ff71 30be d347 f73d a842 d53d 6855 6ebc
000000a0: c609 9bbc db04 0fbe d7c4 ee3c d76b ffbd
000000b0: 834d 70be 42f6 003d 2f9b d23d 6ff4 cd3d
000000c0: 7a94 97bd 9c24 f73c 8864 bd3d 2e57 efbc
000000d0: a948 a93d 3f92 b8bd 69e1 f8bd 1aa2 64bc
000000e0: 231e d6bd 98f1 b43d 3fab 13be 9f9f 99bd
000000f0: a54c cb3d fcaa 7c3b 42a0 a73d 295f 413d
00000100: fdd5 8e3c d556 58bd 37a8 8c3c 9c34 c13c
00000110: 5821 c33c cfab e1bd 913e 0d3e 48fb bfbc
00000120: 3112 9a3d 2855 ccbd a916 913d f58a 6fbc
00000130: 4aac 70bd 4ec2 ef3d c02b db3d e755 c6bd
00000140: bc86 3cbd c0ac 7bbd cbfb fc3d 4252 ef3c
00000150: ba00 5ebc 23a6 4a3e de2c 4c3d a132 a93a
00000160: be4d 86bc 959a 96bc 146e 87ba a4a8 21be
00000170: 31ef 143a b405 17be 18de 3ebd 77de 273d
00000180: c0ff 90bd a698 463e 0b05 873d e1d0 0e3d
00000190: 846a ca3d 8fb1 3a3e 0689 9f3c bd50 81bd
000001a0: 6557 ca3d 7875 20be cfbe af3c f4c8 6ebe
000001b0: fcbe e53d 8fe6 443e 0520 5c3d bad4 3ebd
000001c0: ea0c a2bd eb7f 403c c75a 79bc ee38 d43a
000001d0: 6916 b9bd 45ed 4b3b 607b 05be d64a bf3d
000001e0: a4ee 97bc 75c4 debb a263 37bd 6f59 0c3e
000001f0: c7a8 0cbd 6528 c3bd 1832 60bd d80e 6abd
00000200: 9206 dfbd 1c5a 81bd 5fd0 f43d 18ed b6bb
00000210: 75b5 963d 2114 f9bd 43c5 7bbe 30b8 1ebd
00000220: 1848 6c3d 717a 783b 51fa 2bbd ecef a0bd
00000230: 25ab 0dbe e934 aa3d 4e37 5cbc eeee 653d
00000240: 6e37 8f3d 1e12 f6bd 1727 ba3d c3ed 753d
00000250: b0da eb3d 77a7 f9bd ab3e 783d bcad 073e
00000260: 443b 093d e814 163d 295e 973d 9838 07bd
00000270: 1e30 5b3d 0ea3 093e 38c3 86bd 580d d93d
00000280: 5a2a a9bd 3a2d fdbc c67e b63c 0e7c dabc
00000290: 3d5c adbd ac5a 163e dbc0 013e 931a 30bd
000002a0: fe50 85bd c5b0 a1bd ac8c e13c 7b36 e9bd
000002b0: 8a32 77be baa9 053e e3c9 22bc 4585 e03c
000002c0: 2b3f 34bc bbe0 2e3d 3660 93bc 339b 9dbd
000002d0: 9690 a9bc d532 cdbd 5a56 87bc d2b8 51bd
000002e0: 94c3 60bd e7c2 b2bd b7d5 07bc c411 7c3c
000002f0: ae25 013e 9616 53bc 772c cd3d a2ba f93a
00000300: 5665 063b 2611 c1bc 573b 563d 7641 bc3c
00000310: 45f8 8e3d 9cca 73bd 654d 1d3e 9c8a d33d
00000320: 52ec 20bd 8a9d e2bd 0b97 8f3d 02d7 2cbd
00000330: 00de a1bd 78ea 913a 2c51 f03c 41e8 69bd
00000340: f859 8fbd 8d2e 3d3d 00a9 893d 8478 e23c
00000350: 91e3 d2bd d48e 033e 98d7 d23d 0111 aabc
00000360: f0e4 a239 0320 673d b388 0d3c b6c6 67bd
00000370: 8f4f f73d 499f acbd 1d92 283c 0637 7f3d
00000380: ea06 bdbb c68f f23d ee06 08bc 850e 4dbc
00000390: 2ab9 093e e75b 243e 17d5 b0bd df4f e6bd
000003a0: 4340 ef3a 6431 c5bd 83cb d73d 3140 46be
000003b0: c3dc 9c3d 02ca 1f3e 062c 023e 8216 b4bd
000003c0: 7e38 70bc 33eb f03d 9008 95bc 10e8 21bb
000003d0: 462a e2bd 82c3 0dbd 7ab7 e1bd 220a a1bc
000003e0: 0bc7 5b3c faa0 d4bc 3f66 efbc bc52 583e
000003f0: ea05 a33c bf97 09be d76d 263d cffa 42bd
-0.036196884 -0.0333459 0.07509681 -0.008827397 0.11569584 -0.10143042 -0.18166696 -0.058790296
0.04350314 -0.074671276 -0.01460833 0.04304015 -0.1284107 0.057844236 -0.0058659026 0.016184513
0.10523528 -0.034355976 0.14349326 0.027091622 -0.010724397 -0.056887325 0.08123915 0.13729748
0.012460198 -0.04954903 0.028077764 -0.021071022 0.012143585 0.066685356 0.020529231 0.09318873
-0.01734482 -0.13348763 -0.0025600223 -0.03524006 -0.17230986 0.12074246 0.10413104 -0.01454673
-0.018925559 -0.13966696 0.029146595 -0.12471741 -0.23467068 0.03148485 0.10283505 0.10056388
-0.074013665 0.030168824 0.092476904 -0.029216375 0.08265812 -0.09012269 -0.121523686 -0.013954664
-0.10454967 0.08835143 -0.14420794 -0.075011484 0.09926728 0.0038554063 0.081848636 0.047209892
0.017436022 -0.052817184 0.017170055 0.023584656 0.02381961 -0.11019098 0.13793398 -0.02343525
0.07523001 -0.0997718 0.070844 -0.014620532 -0.058758058 0.117069826 0.10701704 -0.09684353
-0.04602693 -0.061444044 0.12352713 0.029214028 -0.013549978 0.19789939 0.049847476 0.0012908765
-0.016394492 -0.018384257 -0.0010332488 -0.15786988 0.0005681394 -0.1474827 -0.046598524 0.040983643
-0.070800304 0.19394168 0.06592759 0.03486717 0.098835975 0.18231796 0.019474518 -0.06314228
0.098799504 -0.15669811 0.02145329 -0.23318845 0.11218068 0.19228576 0.053741474 -0.04658959
-0.079126194 0.011749248 -0.015219397 0.0016191283 -0.090374775 0.0031116765 -0.13035345 0.09340446
-0.01854641 -0.006798322 -0.04477275 0.13705991 -0.034340646 -0.09529189 -0.054735273 -0.057143062
-0.10889925 -0.06316015 0.11953806 -0.005582463 0.07358829 -0.121620424 -0.24586968 -0.038749874
0.05768594 0.0037914778 -0.041986767 -0.078582615 -0.13834818 0.08310873 -0.01344092 0.056136064
0.06992994 -0.12015174 0.09089487 0.0600412 0.11516321 -0.121901445 0.06060664 0.13249868
0.033503786 0.03664103 0.073910065 -0.033012956 0.053512685 0.13441107 -0.06580204 0.10598248
-0.08260031 -0.030905355 0.022277247 -0.026670482 -0.08464859 0.14683026 0.12671225 -0.042994093
-0.06509589 -0.07895044 0.027532898 -0.113873444 -0.24140373 0.13053027 -0.009935829 0.027407298
-0.011001389 0.04269479 -0.017990213 -0.076956175 -0.020698827 -0.10019461 -0.016520668 -0.05120165
-0.054874018 -0.08728581 -0.0082907 0.015385095 0.1261203 -0.012883803 0.100182466 0.0019052813
0.0020507178 -0.023567747 0.052302685 0.022980433 0.069809474 -0.059519395 0.15361555 0.10329172
-0.039287873 -0.110652044 0.07011231 -0.042197235 -0.07903671 0.0011132499 0.02933558 -0.05710626
-0.06999582 0.046186972 0.06721687 0.027645357 -0.10297311 0.12847453 0.102950275 -0.020760061
0.0003106962 0.056427013 0.008638549 -0.05658599 0.120757215 -0.08428819 0.010288742 0.062308334
-0.0057686465 0.11843829 -0.008302433 -0.012515669 0.1344954 0.16050683 -0.08634394 -0.11245703
0.0018253404 -0.09628561 0.10536864 -0.19360425 0.076592945 0.15604404 0.12712106 -0.087933555
-0.014661906 0.11763611 -0.01819256 -0.002470497 -0.11043219 -0.03461028 -0.110213235 -0.019658152
0.013414155 -0.025955666 -0.02922356 0.2112531 0.019900281 -0.13436793 0.040632095 -0.04760247
